architecture/models/pre_trained_Model.ckpt (torch, 450979 bytes, 14 tensors)

weight f4 [16, 1, 5, 5]
0.059013896 -0.090421714 -0.097786896 0.014754166 -0.17969473 0.07905538 -0.0025264323 0.09076989
-0.006578924 -0.04343727 0.0066389097 0.052498054 0.1567532 -0.02555449 -0.01892497 -0.07361418
0.025621029 0.03221215 0.19558461 0.090442374 -0.08436631 -0.14913131 -0.08020709 -0.07872926
0.00687611 -0.013678452 0.073310435 0.024029668 -0.28670788 0.05198081 0.008104127 0.15934835
0.11242597 -0.1808891 -0.18421817 -0.12869269 0.15519284 -0.042800806 0.064579606 -0.1261784
0.15177691 -0.10125424 0.13442059 -0.04221807 -0.1657313 0.14730945 -0.03595702 0.11144583
-0.05543997 -0.057723116 -0.23281862 -0.1460361 0.062295366 -0.06828053 0.15227544 0.075823545
-0.051431507 -0.11351131 0.15834339 0.026974931 -0.18399847 0.10795235 0.15905285 0.23221506
-0.1140745 -0.059099596 0.02272933 0.07257326 -0.11645495 -0.14569765 0.082849294 -0.034560267
0.08560673 -0.036325447 -0.009512607 -0.010838398 0.031791028 0.058798395 -0.18469822 0.11123859
-0.0671928 -0.14058885 0.008023596 -0.0015375554 0.13068281 -0.024914429 -0.19849835 0.1391953
-0.003997625 0.106839314 0.05697869 -0.16104168 0.06491668 0.06964213 -0.15015018 -0.13824666
0.08909807 0.08262802 -0.071944356 -0.09272991 0.16254337 -0.038085993 0.107729636 0.032931075
-0.21858215 -0.19798768 0.18389902 -0.021626895 0.07353236 -0.050219286 -0.038029805 0.07911566
0.14173666 -0.17379959 -0.028529871 0.020620165 0.12884842 0.13873383 -0.12967709 -0.15324141
-0.17144006 0.05345098 0.24048617 -0.09769505 0.101747744 -0.17393723 -0.2368741 -0.07870539
0.082570545 0.1425868 -0.15888996 0.04427917 0.18407762 0.10705668 0.090919904 0.12995705
0.13551548 0.0598212 -0.17225192 -0.15726864 -0.08824263 -0.027337257 -0.15070976 0.013801781
0.06910275 -0.055623 0.044293463 0.0141582 0.08341013 0.16411114 -0.04352545 0.16235352
-0.06464312 -0.039677456 -0.1920711 -0.12848136 -0.16530678 -0.16775538 0.050088122 -0.09371181
-0.16381125 0.04018137 0.0037271993 0.08562688 -0.08949788 0.03643923 -0.06589175 -0.019260067
-0.10206852 -0.04569753 -0.0072113923 0.13695748 0.11100454 0.1101189 0.2209378 0.22340576
0.17067647 0.022155568 -0.18085344 0.09063629 -0.012741377 0.01356678 -0.17331478 -0.05654527
-0.08062498 0.15862739 -0.19349788 -0.17502093 -0.004661042 -0.03676601 0.0012810024 -0.14983286
-0.12597905 0.010661563 0.18496795 -0.17318985 0.0515267 0.09183931 0.18552467 -0.11253559
0.050053548 -0.15012251 0.18078521 -0.06693305 0.05936563 -0.010365378 -0.066157684 -0.04110271
0.02230994 0.021061908 0.004261107 -0.0149957 -0.25819367 0.09300314 0.13828278 0.15996858
0.104223035 -0.20600493 -0.12528756 0.16087058 -0.1038519 0.22251429 -0.14734013 -0.17025235
0.089886054 -0.172711 -0.03638115 0.14032862 0.15935755 0.16983518 -0.05359164 -0.13624482
0.18859981 -0.034401722 -0.083875746 0.024178049 -0.14451964 0.11782222 0.14227861 -0.12748799
-0.1867332 -0.061249744 0.05548846 0.016320733 -0.081520855 -0.03359982 -0.26719055 -0.18438034
-0.13498308 0.14436008 0.17593272 -0.058385786 0.016223932 0.09273812 0.005511633 -0.08776623
00000000: 8eb8 713d 052f b9bd 7f44 c8bd 75bb 713c
00000010: e501 38be c9e7 a13d 8092 25bb 90e5 b93d
00000020: 0494 d7bb 47eb 31bd 368b d93b 3308 573d
00000030: e983 203e a657 d1bc 8a08 9bbc 08c3 96bd
00000040: 31e3 d13c e3f0 033d 5547 483e da39 b93d
00000050: 3ec8 acbd e1b5 18be 9d43 a4bd ce3c a1bd
00000060: fe50 e13b 961b 60bc c823 963d ded9 c43c
00000070: 60cb 92be d4e9 543d 2cc7 043c 372c 233e
00000080: 963f e63d fe3a 39be b0a3 3cbe 04c8 03be
00000090: dfea 1e3e e64f 2fbd 5042 843d e934 01be
000000a0: 686b 1b3e 625e cfbd 8da5 093e dbec 2cbd
000000b0: 77b5 29be 4ad8 163e ab47 13bd b63d e43d
000000c0: 0615 63bd 136f 6cbd 0168 6ebe 7d8a 15be
000000d0: 6d29 7f3d aad6 8bbd 18ee 1b3e 6049 9b3d
000000e0: d8a9 52bd 9e78 e8bd c524 223e 88fa dc3c
000000f0: 186a 3cbe 1f16 dd3d c0de 223e c9c9 6d3e
00000100: e49f e9bd 6b12 72bd dc32 ba3c 4aa1 943d
00000110: ef7f eebd c431 15be e4ac a93d 118f 0dbd
00000120: 9552 af3d fec9 14bd c4da 1bbc 8993 31bc
00000130: 4f37 023d 96d6 703d 8821 3dbe 0fd1 e33d
00000140: 619c 89bd 86f6 0fbe 6775 033c cc87 c9ba
00000150: b7d1 053e 5819 ccbc 2743 4bbe 3689 0e3e
00000160: 82fe 82bb 92ce da3d 7d62 693d 1ce8 24be
00000170: 09f3 843d 88a0 8e3d f8c0 19be 8890 0dbe
00000180: 0d79 b63d e138 a93d 9057 93bd 2ee9 bdbd
00000190: c571 263e 0f00 1cbd 5ba1 dc3d bce2 063d
000001a0: 00d4 5fbe 48bd 4abe 0650 3c3e e32a b1bc
000001b0: 2298 963d bdb2 4dbd 24c5 1bbd 6407 a23d
000001c0: 6a23 113e 85f8 31be 7ab7 e9bc 9feb a83c
000001d0: d7f0 033e 3e10 0e3e 12ca 04be 51eb 1cbe
000001e0: fc8d 2fbe 6aef 5a3d 0242 763e 5814 c8bd
000001f0: 1f61 d03d 9a1c 32be 208f 72be 4b30 a1bd
00000200: bf1a a93d 4602 123e 0db4 22be 135e 353d
00000210: d87e 3c3e 8840 db3d 3734 ba3d 7613 053e
00000220: 92c4 0a3e 1307 753d cf62 30be 080b 21be
00000230: 8db8 b4bd 62f2 dfbc a953 1abe de20 623c
00000240: be85 8d3d f1d4 63bd 106d 353d cbf7 673c
00000250: eed2 aa3d c00c 283e be47 32bd 0040 263e
00000260: 9d63 84bd d484 22bd 49ae 44be 9e90 03be
00000270: 2e46 29be 11c8 2bbe 3429 4d3d faeb bfbd
00000280: 23be 27be 3895 243d 0744 743b 255d af3d
00000290: aa4a b7bd 4d41 153d 41f2 86bd 4ac7 9dbc
000002a0: 4d09 d1bd 552d 3bbd 8b4d ecbb 953e 0c3e
000002b0: 5956 e33d 0586 e13d 853d 623e 7bc4 643e
000002c0: d0c5 2e3e 987f b53c a531 39be 859f b93d
000002d0: 35c1 50bc 3347 5e3c 6e79 31be 039c 67bd
000002e0: b61e a5bd 386f 223e 4f24 46be b038 33be
000002f0: a7bb 98bb f597 16bd 4fe7 a73a c96d 19be
00000300: a700 01be d6ad 2e3c 3d68 3d3e ae58 31be
00000310: a90d 533d 4016 bc3d 2efa 3d3e 0f79 e6bd
00000320: f304 4d3d b7b9 19be c21f 393e 3214 89bd
00000330: 6029 733d 8cd3 29bc ae7d 87bd 515b 28bd
00000340: 56c3 b63c 068a ac3c c2a0 8b3b 86b0 75bc
00000350: f631 84be 6e78 be3d 009a 0d3e cece 233e
00000360: e372 d53d f5f2 52be 624b 00be 42bb 243e
00000370: 4eb0 d4bd c9da 633e 55e0 16be a256 2ebe
00000380: 2e16 b83d 27db 30be 6704 15bd 4eb2 0f3e
00000390: a02e 233e 46e9 2d3e e882 5bbd c383 0bbe
000003a0: 4f20 413e d2e8 0cbd 0cc7 abbd 0b11 c63c
000003b0: f5fc 13be c74c f13d 7cb1 113e 368c 02be
000003c0: fd36 3fbe 03e1 7abd de47 633d 0fb3 853c
000003d0: 68f4 a6bd f79f 09bd 33cd 88be 33ce 3cbe
000003e0: 0139 0abe 21d3 133e b527 343e ef25 6fbd
000003f0: 0de8 843c 7ced bd3d ee9a b43b c8be b3bd

bias f4 [16]
-0.10245863 0.10448402 -0.017018622 -0.18547295 -0.02837477 -0.16861777 -0.116639584 -0.1219405
0.15882492 -0.04198052 -0.033959083 0.0919788 0.077156 -0.14842738 0.06848149 0.08707883
00000000: d5d5 d1bd b8fb d53d a36a 8bbc 9fec 3dbe
00000010: 3572 e8bc 23aa 2cbe bce0 eebd f1bb f9bd
00000020: 00a3 223e c4f3 2bbd ae18 0bbd 625f bc3d
00000030: f703 9e3d 59fd 17be 0640 8c3d 6356 b23d

weight f4 [16]
0.9991999 1.0618072 0.9289867 0.9553163 0.9325851 0.9163326 1.0711399 1.0990877
0.954273 1.0387298 0.8613077 1.0873296 1.0308994 1.1003928 0.9544597 0.88059336
00000000: 91cb 7f3f 4ce9 873f 13d2 6d3f 9c8f 743f
00000010: e6bd 6e3f c694 6a3f 1d1b 893f e8ae 8c3f
00000020: 3c4b 743f 19f5 843f a97e 5c3f 9e2d 8b3f
00000030: 83f4 833f acd9 8c3f 7957 743f 916e 613f

bias f4 [16]
-0.32808715 -0.08157086 -0.1619285 -0.04087317 -0.17321569 -0.035761725 -0.15117785 -0.11840405
-0.1449953 -0.11569075 -0.15036237 -0.042146485 -0.1460673 0.06006875 -0.20516108 -0.19475427
00000000: 0afb a7be a00e a7bd 96d0 25be a06a 27bd
00000010: 745f 31be e37a 12bd 5ece 1abe d37d f2bd
00000020: a679 14be 46ef ecbd 98f8 19be cba1 2cbd
00000030: ab92 15be a60a 763d bf15 52be aa6d 47be

running_mean f4 [16]
-0.12478178 0.06337763 -0.033038866 -0.23285362 -0.004615388 -0.16142325 -0.18939535 -0.16676985
0.1497633 -0.13894324 0.17727351 -0.036456604 0.049964637 -0.4168113 0.07752337 0.21509999
00000000: 978d ffbd 22cc 813d c353 07bd 2e71 6ebe
00000010: ae3c 97bb 234c 25be dbf0 41be b7c5 2abe
00000020: 8d5b 193e 2347 0ebe 3087 353e 8553 15bd
00000030: b8a7 4c3d 4a68 d5be 93c4 9e3d 2c43 5c3e

running_var f4 [16]
0.00891835 0.039420176 0.023652172 0.014754777 0.023506619 0.023754494 0.046744015 0.04378736
0.012831192 0.05992065 0.09578466 0.06460878 0.05075832 0.15764666 0.020493917 0.04436602
00000000: 451e 123c 0d77 213d 33c2 c13c 05be 713c
00000010: f490 c03c c998 c23c a776 3f3d 605a 333d
00000020: ec39 523c 5b6f 753d bf2a c43d 9c51 843d
00000030: f5e7 4f3d 206e 213e dce2 a73c 25b9 353d

weight f4 [32, 16, 5, 5]
-0.010105133 0.059767406 -0.02599835 -0.03225966 -0.041060813 0.052494574 0.0048554037 0.0069663683
-0.013472631 0.011253649 -0.027657812 -0.05779343 -0.011264323 0.0057671466 0.00234445 -0.05583287
-0.042244323 -0.025829071 0.02047725 -0.021970484 -0.015465382 -0.019527137 0.0030898796 0.01123232
-0.022075899 0.07659109 -0.01626604 0.021766488 -0.006104592 0.041819803 -0.01345573 0.053492352
-0.011359956 -0.038361244 0.071379684 0.03834451 0.05836437 0.024058696 0.05155589 0.06599618
-0.02016055 -0.018979112 0.059992578 -0.017542176 0.035572283 -0.045479704 0.03520318 0.039395843
0.00022201975 0.020616125 -0.0012420797 -0.03858511 -0.021669358 -0.025292855 0.03996305 -0.0063381614
0.019428134 0.024281142 0.053662755 0.056032244 -0.020070147 0.013832762 0.0072384207 -0.025984118
0.02558201 0.010069444 0.0174257 0.013452677 0.037146676 -0.02568321 -0.012254662 0.050737087
0.030778816 0.03172435 0.021047145 -0.03978244 -0.015830038 -0.03885447 0.034595024 0.043252997
0.0038724681 -0.052225564 -0.02922525 0.033899304 -0.02990299 -0.015584416 -0.0410139 -0.03296739
-0.0077268225 -0.04989974 -0.0060544456 -0.044003133 0.009932494 -0.0047567347 -0.014817914 -0.014801111
-0.05027115 0.021095902 0.06307426 -0.044434134 -0.018832628 -0.014175751 -0.03987933 -0.008858064
-0.0295599 -0.027294477 0.017675702 -0.02468206 -0.02858139 -0.019044725 0.025331322 0.008040759
-0.005970597 -0.034039598 0.027099498 0.027563665 0.01784737 0.027781729 -0.01250099 -0.03383129
0.03781598 -0.015493454 -0.030968735 0.029874736 0.012308972 -0.020530106 -0.04542692 -0.039493147
-0.023738604 0.05720284 -0.0034361403 0.008726213 -0.03518901 0.03578877 0.029332595 0.0033752995
0.012548938 -0.042964026 -0.0049340455 0.022847332 0.046920896 -0.022713754 -0.032944776 -0.027049458
-0.02256375 -0.0040454 -0.006153781 -0.042314228 0.011245727 -0.0063442425 -0.0002976818 -0.009215063
-0.016252153 -0.01102839 0.017382212 0.036705922 -0.017740997 -0.02821902 -0.0037012263 0.02498876
0.029113464 0.031644203 0.023996377 -0.015905537 0.047265794 0.047893956 0.0030853557 0.06153785
0.012559389 -0.05082955 -0.008974478 0.0617104 0.025795247 0.026935358 -0.023424802 0.0713827
0.054663893 0.0029302284 -0.030321816 0.040318113 0.058867466 0.027519114 -0.018173622 0.028380236
0.02489126 0.041702494 0.06614733 -0.0018254855 -0.03647588 -0.020115897 0.042886842 0.07719305
0.020332566 0.0276643 0.0032333948 0.015764192 0.032753758 0.06442502 0.03830644 0.021716297
-0.011195476 0.010563875 0.049205385 0.042533536 0.021091398 -0.0397444 0.020346291 0.01507702
0.042441867 0.049027417 -0.035351735 0.02138299 0.0070415335 0.047633983 0.03719566 -0.04434215
-0.021435706 -0.012300735 0.0010737923 -0.004086814 -0.036818694 -0.061454687 -0.059271842 -0.014834839
-0.0035537807 -0.006385924 0.007518496 0.016503446 0.02600539 0.047700804 -0.06171091 0.021077061
-0.055794597 0.011259942 -4.5395547e-05 -0.04808359 -0.045588985 -0.027593277 -0.014841825 -0.0010126774
-0.04471237 0.043375745 -0.0077810786 0.010180578 -0.034243654 0.012352277 -0.017350946 -0.058684926
0.030078158 0.010207792 0.062396385 -0.04320909 -0.06982397 -0.053998746 0.009373326 0.011346394
00000000: 0090 25bc abce 743d 7efa d4bc b522 04bd
00000010: 622f 28bd 8d04 573d 141a 9f3b 2246 e43b
00000020: 4fbc 5cbc 3a61 383c a392 e2bc ceb8 6cbd
00000030: ff8d 38bc 55fa bc3b 58a5 193b 02b1 64bd
00000040: 6208 2dbd 7d97 d3bc e8bf a73c 72fb b3bc
00000050: 8362 7dbc 60f7 9fbc 947f 4a3b c407 383c
00000060: 84d8 b4bc cadb 9c3d 5c40 85bc a24f b23c
00000070: 0709 c8bb 3e4b 2b3d 6c75 5cbc cc1a 5b3d
00000080: 1c1f 3abc ae20 1dbd 832f 923d 220f 1d3d
00000090: 7a0f 6f3d be16 c53c 452c 533d 0129 873d
000000a0: bd27 a5bc 157a 9bbc c7ba 753d 9cb4 8fbc
000000b0: 3eb4 113d ed48 3abd 3631 103d 895d 213d
000000c0: f9cd 6839 26e3 a83c 47cd a2ba 6c0b 1ebd
000000d0: f083 b1bc f632 cfbc 4cb0 233d 5ab0 cfbb
000000e0: c027 9f3c 3fe9 c63c 7acd 5b3d 1182 653d
000000f0: 266a a4bc cfa2 623c 4630 ed3b a5dc d4bc
00000100: 5d91 d13c 4ffa 243c 57c0 8e3c 9e68 5c3c
00000110: 1d27 183d 9865 d2bc c7c7 48bc b1d1 4f3d
00000120: db23 fc3c 64f1 013d 106b ac3c e9f2 22bd
00000130: ffad 81bc dd25 1fbd 83b3 0d3d 0e2a 313d
00000140: 3cc9 7d3b 79ea 55bd cb69 efbc ffd9 0a3d
00000150: 1ef7 f4bc c755 7fbc 31fe 27bd d008 07bd
00000160: 4931 fdbb ab63 4cbd 5f64 c6bb a13c 34bd
00000170: e6bb 223c 62de 9bbb d6c6 72bc 5c80 72bc
00000180: 1fe9 4dbd 50d1 ac3c 142d 813d 9100 36bd
00000190: e246 9abc 6941 68bc 8258 23bd 6a21 11bc
000001a0: 9a27 f2bc ab98 dfbc a2cc 903c 0832 cabc
000001b0: 8523 eabc af03 9cbc a283 cf3c 63bd 033c
000001c0: ffa4 c3bb 1b6d 0bbd c4ff dd3c 32cd e13c
000001d0: a634 923c 8296 e33c f4d0 4cbc ae92 0abd
000001e0: eee4 1a3d 42d8 7dbc 25b2 fdbc ddbb f43c
000001f0: 92ab 493c c12e a8bc 9411 3abd 91c3 21bd
00000200: 7677 c2bc 864d 6a3d de30 61bb 64f8 0e3c
00000210: 5a22 10bd 3f97 123d e94a f03c 2134 5d3b
00000220: 109a 4d3c 0cfb 2fbd c6ad a1bb 542a bb3c
00000230: 2030 403d 3212 babc 1af1 06bd d396 ddbc
00000240: 9dd7 b8bc 468f 84bb a8a5 c9bb af51 2dbd
00000250: ff3f 383c 5de3 cfbb 2d12 9cb9 c7fa 16bc
00000260: 3c23 85bc 6cb0 34bc 2465 8e3c f358 163d
00000270: 9155 91bc 932b e7bc 4690 72bb 3ab5 cc3c
00000280: 5c7f ee3c 5a9d 013d 0d94 c43c 544c 82bc
00000290: c799 413d 742c 443d ae33 4a3b 1d0f 7c3d
000002a0: e5c5 4d3c a532 50bd b009 13bc 0bc4 7c3d
000002b0: 8e50 d33c 8aa7 dc3c 5fe5 bfbc 1831 923d
000002c0: 3fe7 5f3d 1309 403b 7565 f8bc 9b24 253d
000002d0: 031f 713d c46f e13c d9e0 94bc ab7d e83c
000002e0: c1e8 cb3c 3cd0 2a3d 4078 873d 2145 efba
000002f0: bb67 15bd 18ca a4bc 1daa 2f3d 6417 9e3d
00000300: 7b90 a63c 3ea0 e23c 5de7 533b e823 813c
00000310: ce28 063d 44f1 833d 37e7 1c3d 60e6 b13c
00000320: 3b6d 37bc 1a14 2d3c 968b 493d a537 2e3d
00000330: dec7 ac3c 06cb 22bd 44ad a63c 9b05 773c
00000340: 86d7 2d3d f9d0 483d fbcc 10bd 612b af3c
00000350: aabc e63b da1b 433d 7a5a 183d 1da0 35bd
00000360: ef99 afbc 0689 49bc 7ebe 8c3a aeea 85bb
00000370: 33cf 16bd e9b7 7bbd 08c7 72bd d30d 73bc
00000380: 8ce6 68bb 0341 d1bb b75d f63b 3c32 873c
00000390: 4109 d53c eb61 433d 94c4 7cbd cda9 ac3c
000003a0: e088 64bd 9f7b 383c 1967 3eb8 4cf3 44bd
000003b0: 84bb 3abd 4c0b e2bc 202b 73bc d1bb 84ba
000003c0: 5124 37bd c4aa 313d 6bf8 febb 70cc 263c
000003d0: 1343 0cbd 3461 4a3c 9223 8ebc 9b5f 70bd
000003e0: 7866 f63c 953e 273c 5a93 7f3d 04fc 30bd
000003f0: dfff 8ebd ca2d 5dbd 9492 193c 3ae6 393c

bias f4 [32]
-0.0007843288 -0.037866026 -0.03754354 -0.040043507 -0.015606209 0.034252457 -0.005357185 0.009694665
-0.002956886 0.034280293 0.046891794 -0.023872763 -0.039655525 0.028047362 0.03774693 0.002077902
-0.024722122 -0.014856297 0.03322101 0.012986236 -0.019238813 0.014337856 0.009937116 -0.018483672
-0.028210724 0.014232355 0.015816724 0.049457587 -0.008665895 0.0038673328 0.010446164 0.020075537
00000000: 6a9b 4dba 6819 1bbd 41c7 19bd a904 24bd
00000010: 2fb1 7fbc 4e4c 0c3d 538b afbb 5fd6 1e3c
00000020: 51c8 41bb 7e69 0c3d 9c11 403d d090 c3bc
00000030: d56d 22bd 95c3 e53c 869c 1a3d 692d 083b
00000040: 0c86 cabc d367 73bc c112 083d 39c4 543c
00000050: b79a 9dbc 54e9 6a3c 49cf 223c 126b 97bc
00000060: 2d1a e7bc d32e 693c 1392 813c 0a94 4a3d
00000070: 66fb 0dbc 1473 7d3b 6326 2b3c 7475 a43c

weight f4 [32]
1.0683677 1.1071758 1.1009943 1.1313475 1.1480631 1.141837 1.1741267 1.1546869
1.0960733 1.1690904 1.084712 1.1233225 1.1193011 1.0885605 1.0754831 1.097139
1.1140732 1.1076746 1.1026319 1.2081407 1.1180857 1.1262817 1.0933942 1.1006376
1.2100109 1.088038 1.0833836 1.118394 1.0673869 1.1138905 1.1134909 1.0569383
00000000: 46c0 883f f0b7 8d3f 62ed 8c3f ffcf 903f
00000010: bbf3 923f b727 923f c949 963f c8cc 933f
00000020: 214c 8c3f c1a4 953f d8d7 8a3f 08c9 8f3f
00000030: 4245 8f3f f355 8b3f 6ea9 893f 0d6f 8c3f
00000040: f399 8e3f 48c8 8d3f 0b23 8d3f 5ba4 9a3f
00000050: 6f1d 8f3f 002a 903f 57f4 8b3f b1e1 8c3f
00000060: a3e1 9a3f d444 8b3f 50ac 8a3f 8927 8f3f
00000070: 22a0 883f f793 8e3f df86 8e3f c149 873f

bias f4 [32]
-0.0013457021 0.008486527 -0.023556609 0.008758363 -0.02316314 -0.0022356727 0.039468974 0.023644226
0.005817136 0.0061954497 -0.03758809 0.011921294 0.024893729 0.02309453 0.018554838 0.01991638
-0.04075588 -0.0299929 0.018816482 0.025307719 0.009779244 -0.0076836557 0.017823763 0.010903588
-0.0017833221 -0.0029524753 0.004380406 0.0025688491 -0.019485667 -0.024632592 0.0080497395 -0.006437638
00000000: 4562 b0ba 130b 0b3c caf9 c0bc 3d7f 0f3c
00000010: a0c0 bdbc 5d84 12bb 38aa 213d 89b1 c13c
00000020: ac9d be3b 3303 cb3b f8f5 19bd 8851 433c
00000030: efed cb3c bd30 bd3c 5100 983c ad27 a33c
00000040: a3ef 26bd acb3 f5bc 0625 9a3c 2252 cf3c
00000050: 1f39 203c 2dc7 fbbb 2403 923c f6a4 323c
00000060: 5cbe e9ba 517e 41bb 8289 8f3b 235a 283b
00000070: 68a0 9fbc 4aca c9bc 0ee3 033c d2f2 d2bb

running_mean f4 [32]
0.19015549 -0.683878 -0.90651715 -0.74680424 0.72651047 -0.04036034 1.1300089 0.33583438
1.5277182 -0.1007412 -0.86693007 0.009261875 -0.4181953 0.98925257 0.092211485 -0.024238912
-0.80047494 -0.9742452 -0.1571661 0.6758433 -0.38312185 -0.9596231 0.20866933 0.3089767
0.6572301 -0.27282134 -0.34216565 -0.40760896 0.294705 0.26211122 0.19222532 0.46976086
00000000: 1fb8 423e a112 2fbf 8211 68bf 902e 3fbf
00000010: 97fc 393f e250 25bd 22a4 903f 7cf2 ab3e
00000020: 458c c33f 6751 cebd 21ef 5dbf 1fbf 173c
00000030: b21d d6be a83f 7d3f 60d9 bc3d af90 c6bc
00000040: edeb 4cbf 2268 79bf 26f0 20be 1104 2d3f
00000050: 8c28 c4be dca9 75bf 6aad 553e 3232 9e3e
00000060: 3b40 283f 3daf 8bbe 5630 afbe 1fb2 d0be
00000070: 93e3 963e 7133 863e b7d6 443e 7f84 f03e

running_var f4 [32]
1.3259681 1.20152 1.6589283 1.9971453 1.8299317 1.7626526 2.2419064 3.0421517
2.4685655 2.7587867 1.6611516 1.3951191 1.2977892 1.2922302 1.0317196 1.5122557
1.4429485 1.4146396 2.6740549 2.5197327 1.5632237 2.2939537 1.8871193 1.3183627
2.387221 1.6091342 1.2669805 1.9922172 1.2828659 2.8135169 1.7388569 1.8123851
00000000: 53b9 a93f 68cb 993f c357 d43f 75a2 ff3f
00000010: 343b ea3f 9a9e e13f 657b 0f40 9db2 4240
00000020: fafc 1d40 f68f 3040 9ea0 d43f 4393 b23f
00000030: f51d a63f cd67 a53f 630f 843f 9891 c13f
00000040: 89b2 b83f e912 b53f b723 2b40 4d43 2140
00000050: b717 c83f 23d0 1240 208d f13f 1cc0 a83f
00000060: 3bc8 1840 1cf8 cd3f 6b2c a23f f900 ff3f
00000070: f334 a43f a910 3440 dd92 de3f 3cfc e73f

weight f4 [62, 1568]
-0.0027080528 -0.015093163 0.033848237 0.03467508 0.03966748 -0.011019579 0.026978787 0.010080808
0.0024584732 -0.02105376 -0.001514284 0.0028303892 -0.0075838836 0.014032708 0.0049282103 0.038224354
0.019874133 -0.0053000287 -0.034416087 -0.03468624 0.018360743 0.011310337 0.028928716 -0.026153592
-0.028760055 0.009027056 0.0035979568 0.010164455 0.038958024 0.031409517 0.014705282 0.007730485
0.022863127 -0.0019526856 0.027728695 0.025570475 0.015318585 -0.0113730645 0.027227275 -0.019524805
0.04834225 0.019215869 0.0072991545 -0.012494279 -0.031780034 -0.029581953 0.00708779 0.0046512135
0.016090099 -0.016492596 -0.023580095 0.0401045 0.03988279 0.03475783 0.04044472 0.06814791
0.0091744065 -0.009735354 0.02522553 0.027899522 0.008472137 0.044189923 0.02774941 -0.02936092
-0.0074613634 -0.005415347 -0.01939918 0.008540337 0.0013652886 0.04610269 0.013864565 0.01942657
0.039103653 0.012604832 0.018809875 0.015930269 0.026061235 0.013859249 0.020030653 0.06103089
0.07112926 0.018226879 -0.012555765 -0.07896732 0.0016612523 0.009130444 0.06116232 0.06703764
0.03164566 0.008956842 -0.050738517 -0.042533442 0.04264119 0.09548 0.064116016 0.037207194
0.059511952 -0.046865065 -0.027678052 0.015843844 0.017023504 0.011626518 0.018196758 0.062395368
0.004444301 0.009329873 0.009581405 -0.026636375 -0.02959563 0.019364784 -0.0022240607 0.024596935
-0.019124188 0.016240183 -0.034897584 -0.05717411 0.045295764 0.0134750195 -0.017804451 0.02520604
0.01491681 -0.03754224 -0.03296382 0.0060518947 -0.024733951 0.005265867 0.019385511 0.008412523
0.007669027 0.044019368 -0.05537389 0.000209224 0.012310662 -0.015171705 0.023916526 0.01148574
0.021713201 -0.06804731 -0.0062165367 0.013240305 -0.012797307 -0.0009385675 0.010938686 -0.020673458
0.0644777 0.00015547952 0.0342836 0.011009482 -0.022475518 -0.009035534 0.0139995 0.05009717
0.024269758 0.036819 -0.017967205 -0.05963121 -0.035956502 0.036733024 0.035068154 0.048793368
0.019321285 -0.030593848 -0.035706818 -0.035127833 0.034657005 0.030877886 0.0149550075 0.023727126
-0.015619024 0.004397622 0.01371879 0.028444504 -0.03793523 -0.003678153 -0.008568999 -0.045452185
0.020863472 0.0070352014 0.0008501229 0.016578462 0.0009010504 -0.0050028525 -0.03086843 0.0072904024
-0.0015212013 0.02592662 0.04144468 0.041770376 0.010673842 0.0013484893 -0.039342806 0.013670212
0.017274965 -0.0013824885 0.027449936 0.0035997296 0.0011856838 -0.001513158 -0.008099781 -0.025831927
-0.011145089 0.02193901 -0.0054219207 0.022527672 -0.017048193 -0.037826248 -0.01558496 -0.015333577
-0.03255845 0.025047692 0.046288125 0.007983639 -0.020958025 0.011132555 -0.05050719 -0.015144679
0.019438315 0.033956595 0.007374485 0.011505336 -0.06459789 -0.066628605 0.032183968 0.032304503
0.01851848 -0.0004142591 -0.015249184 -0.046584014 0.048826765 0.026971702 0.006033113 -0.008319031
-0.045368716 -0.03530112 -0.033380922 0.023048062 0.03982964 0.016896805 0.012989235 -0.038862456
-0.026648335 -0.0050513535 0.0084231375 -0.023487799 0.0026325148 -0.02151653 -0.024298662 -0.0299659
0.01731075 0.016593726 0.041381866 -0.005973484 -0.02502219 -0.057467967 -0.021770721 0.041438553
00000000: 9679 31bb 5049 77bc 73a4 0a3d 7507 0e3d
00000010: 5e7a 223d 778b 34bc 9e02 dd3c f929 253c
00000020: 561e 213b ef78 acbc f17a c6ba 0d7e 393b
00000030: 3a82 f8bb 71e9 653c d37c a13b 2491 1c3d
00000040: 14cf a23c ddab adbb e2f7 0cbd 2913 0ebd
00000050: 4569 963c fe4e 393c eafb ec3c 0f40 d6bc
00000060: 359a ebbc 38e6 133c b3cb 6b3b d088 263c
00000070: 7392 1f3d 44a7 003d 6cee 703c 0250 fd3b
00000080: 744b bb3c 42f1 ffba 4a27 e33c 2c79 d13c
00000090: cdfa 7a3c 1756 3abc bc0b df3c 7cf2 9fbc
000000a0: 8602 463d 996a 9d3c bf2d ef3b ceb4 4cbc
000000b0: c82b 02bd da55 f2bc b140 e83b 3569 983b
000000c0: 62cf 833c 7b1b 87bc 0b2b c1bc 9e44 243d
000000d0: 235c 233d 3a5e 0e3d 5da9 253d 2291 8b3d
000000e0: 4050 163c 0981 1fbc c5a5 ce3c 8a8d e43c
000000f0: b8ce 0a3c 7e00 353d bb52 e33c 5086 f0bc
00000100: 747e f4bb 3973 b1bb 07eb 9ebc c5ec 0b3c
00000110: 7cf3 b23a 2dd6 3c3d 3328 633c 7824 9f3c
00000120: 272b 203d 7f84 4e3c 2b17 9a3c 3280 823c
00000130: 5f7e d53c e711 633c 5317 a43c 87fb 793d
00000140: 38ac 913d 8950 953c b2b6 4dbc 9eb9 a1bd
00000150: 61be d93a dc97 153c 5785 7a3d 084b 893d
00000160: e19e 013d b8bf 123c 31d3 4fbd 8c37 2ebd
00000170: 87a8 2e3d 058b c33d 424f 833d 9266 183d
00000180: cec2 733d 95f5 3fbd 15bd e2bc f3ca 813c
00000190: e074 8b3c 277d 3e3c 5e11 953c 4992 7f3d
000001a0: 80a1 913b 53dc 183c 53fb 1c3c 8734 dabc
000001b0: 8972 f2bc e5a2 9e3c 8cc1 11bb 837f c93c
000001c0: 54aa 9cbc 220a 853c c5f0 0ebd 662f 6abd
000001d0: 0d88 393d 54c6 5c3c a4da 91bc e67c ce3c
000001e0: a365 743c e4c5 19bd 1205 07bd f94e c63b
000001f0: db9e cabc 4b8d ac3b 5dce 9e3c aed4 093c
00000200: 764c fb3b a74d 343d bbcf 62bd 2463 5b39
00000210: a9b2 493c be92 78bc 97ec c33c af2e 3c3c
00000220: e2df b13c 635c 8bbd 17b4 cbbb dded 583c
00000230: ccab 51bc 330a 76ba 2d38 333c 625b a9bc
00000240: e20c 843d 3708 2339 f66c 0c3d 1d61 343c
00000250: 941e b8bc c709 14bc 295e 653c b132 4d3d
00000260: 5fd1 c63c 85cf 163d f62f 93bc db3f 74bd
00000270: 2047 13bd 5e75 163d a0a3 0f3d 8edb 473d
00000280: ac47 9e3c f39f fabc 5041 12bd 34e2 0fbd
00000290: 81f4 0d3d 9ff3 fc3c d905 753c 645f c23c
000002a0: efe6 7fbc ed19 903b c7c4 603c 7304 e93c
000002b0: f961 1bbd 2b0d 71bb fd64 0cbc 122c 3abd
000002c0: dfe9 aa3c 8c87 e63b c8da 5e3a 8ecf 873c
000002d0: 7834 6c3a f8ee a3bb cadf fcbc 54e4 ee3b
000002e0: 0c63 c7ba 1064 d43c e6c1 293d 6a17 2b3d
000002f0: 57e1 2e3c cbbf b03a ec25 21bd 06f9 5f3c
00000300: 3a84 8d3c 9e34 b5ba b0de e03c 71e9 6b3b
00000310: f268 9b3a 2855 c6ba f2b4 04bc 7a9d d3bc
00000320: e499 36bc 70b9 b33c 5eaa b1bb f48b b83c
00000330: a7a8 8bbc b2ef 1abd 0f58 7fbc af39 7bbc
00000340: 025c 05bd d130 cd3c 9e98 3d3d cfcd 023c
00000350: 2ab0 abbc 5265 363c a1e0 4ebd 6321 78bc
00000360: 1a3d 9f3c 1216 0b3d aaa5 f13b e080 3c3c
00000370: e64b 84bd 9474 88bd 56d3 033d ba51 043d
00000380: 11b4 973c ea30 d9b9 b7d7 79bc e1ce 3ebd
00000390: 93fe 473d c2f3 dc3c 6cb1 c53b 8c4c 08bc
000003a0: 8cd4 39bd e897 10bd 6fba 08bd 4acf bc3c
000003b0: 6824 233d 2b6b 8a3c cdd0 543c 3d2e 1fbd
000003c0: 9c4d dabc d385 a5bb 3301 0a3c 7c69 c0bc
000003d0: 4586 2c3b 6f43 b0bc fd0d c7bc 0c7b f5bc
000003e0: 46cf 8d3c 91ef 873c 0880 293d 37bd c3bb
000003f0: 56fb ccbc 8863 6bbd 8358 b2bc 79bb 293d

bias f4 [62]
0.0026388348 0.0527753 0.002689437 -0.012686973 0.019751415 0.021200122 -0.011195725 -0.005712991
0.0109676225 -0.00063557853 -0.024928605 -0.0044289953 -0.030906342 -0.010505323 -0.028757092 -0.013985235
0.005276863 0.016355818 -0.03271454 -0.0022325509 -0.0063681803 -0.032103274 -0.010528699 -0.0073958063
-0.025977323 -0.010978981 -0.009087781 -0.0031744433 -0.011068659 -0.0064682006 -0.0066631637 -0.011120789
-0.015615265 -0.025628893 0.012119792 0.0050801267 -0.009846311 -0.03053797 0.0011349639 -0.013638011
-0.011881011 -0.013693792 0.013749025 -0.005321796 -0.008580629 0.0022637649 -0.029360246 -0.0017500207
0.0014373955 -0.019966219 -0.031251755 0.010800533 0.009950062 -0.0122878365 -0.00642936 0.008316369
0.009561961 -0.006845111 -0.012258698 -0.012050152 0.0023930103 0.014004708
00000000: 4df0 2c3b ea2a 583d 4441 303b 06dd 4fbc
00000010: b8cd a13c e1ab ad3c 466e 37bc 0b34 bbbb
00000020: 8bb1 333c f49c 26ba 1337 ccbc 1b21 91bb
00000030: 4c2f fdbc 851e 2cbc fe93 ebbc 5422 65bc
00000040: 89e9 ac3b a3fc 853c aeff 05bd fd4f 12bb
00000050: 2bac d0bb b97e 03bd 9080 2cbc 8558 f2bb
00000060: 65ce d4bc 2fe1 33bc ebe4 14bc 520a 50bb
00000070: 5259 35bc 33f3 d3bb ab56 dabb f833 36bc
00000080: 2bd7 7fbc aff3 d1bc 1892 463c 3177 a63b
00000090: 6c52 21bc c42a fabc 12c3 943a f771 5fbc
000000a0: 92a8 42bc ed5b 60bc 9743 613c 7662 aebb
000000b0: c495 0cbc ac5b 143b e684 f0bc f360 e5ba
000000c0: fd66 bc3a 3290 a3bc d701 00bd b8f4 303c
000000d0: 9605 233c ec52 49bc 61ad d2bb 6141 083c
000000e0: c5a9 1c3c f44c e0bb b5d8 48bc 006e 45bc
000000f0: 0dd4 1c3b 0174 653c
