architecture/models/randomModel.ckpt (torch, 450935 bytes, 14 tensors)

weight f4 [16, 1, 5, 5]
0	0x3dbe0377	0.092780046
1	0xbdd00d77	-0.10158818
2	0xbd42249f	-0.047398206
3	0x3db3d785	0.087813415
4	0xbe457ebe	-0.1928663
5	0x3dcf2bcb	0.10115775
6	0xbd73ff9d	-0.059569944
7	0x3dc2bd98	0.095088184
8	0x3cef7c77	0.029234154
9	0xbcb2573f	-0.021770118
10	0x3d176448	0.03696087
11	0xbbd5c8d5	-0.006524185
12	0x3dab1e07	0.08355337
13	0xbd820138	-0.06347889
14	0xba45ac5b	-0.00075406366
15	0xbd08e93b	-0.03342555
16	0x3c99f656	0.01879422
17	0x3c868e42	0.016425256
18	0x3e45b449	0.19307055
19	0x3da40e23	0.08010509
20	0xbdaf2e5b	-0.085537635
21	0xbe00f37e	-0.12592885
22	0xbca8aed9	-0.020591186
23	0xbd889f46	-0.06671004
24	0xbd34bf6f	-0.044127878
25	0x39b30e7f	0.0003415234
26	0x3dd7cde2	0.10537316
27	0x3dbee1a9	0.09320385
28	0xbe5b94e7	-0.2144352
29	0x3dd4bb27	0.10387259
30	0x3d057d5d	0.03259026
31	0x3e2fbcaf	0.17161821
32	0x3de9a759	0.11408872
33	0xbe4da2e9	-0.20081677
34	0xbe5585c4	-0.20851809
35	0xbde690c5	-0.11258081
36	0x3e23bfef	0.15991186
37	0xbd4e0f1b	-0.050307374
38	0x3d8d2c04	0.06893161
39	0xbddbef2c	-0.10738978
40	0x3e4bc4d5	0.19899304
41	0xbda11004	-0.07864383
42	0x3e1c7269	0.15278019
43	0x3b6ec94d	0.0036435903
44	0xbdccb55a	-0.099955276
45	0x3df16339	0.11786503
46	0xbdb2c4be	-0.08728932
47	0x3da4df5e	0.080504164
48	0xbd179bab	-0.03701369
49	0xbb79b76d	-0.0038103715
50	0xbe4613e2	-0.19343522
51	0xbdb45b5f	-0.0880649
52	0x3df89cee	0.12139307
53	0xbd1c5937	-0.03817102
54	0x3e457b63	0.1928535
55	0x3e171891	0.14755465
56	0xbc07e47d	-0.008294222
57	0xbe00fd10	-0.12596536
58	0x3df27c57	0.11840122
59	0x3d4a62cf	0.049410637
60	0xbe136684	-0.14394575
61	0x3e072344	0.13197047
62	0x3e02fef3	0.12792568
63	0x3e39fb95	0.18162377
64	0xbde2a398	-0.11066359
65	0xbd2cc24d	-0.042177487
66	0x3b7c5fe9	0.0038509315
67	0x3d259f96	0.040435396
68	0xbe10093e	-0.14066026
69	0xbe0850b3	-0.13312034
70	0x3de4a5c1	0.111644275
71	0xbd130a3f	-0.035898443
72	0x3de1efa9	0.1103204
73	0x3cb2ce90	0.021827012
74	0x3d940752	0.07227959
75	0x3d32885d	0.043587077
76	0x3d922394	0.07135692
77	0x3dc2a3af	0.095038764
78	0xbe3d928c	-0.18512934
79	0x3dd39b0a	0.10332306
80	0xbe0c106c	-0.1367814
81	0xbe1eb243	-0.15497689
82	0x3c117f48	0.008880444
83	0xbd00e337	-0.03146669
84	0x3df88d91	0.12136377
85	0xbdeb8db9	-0.11501641
86	0xbe38cf3a	-0.180478
87	0x3e1407ba	0.14456072
88	0xbce08a52	-0.027409706
89	0x3deca27a	0.115544274
90	0x3d67f63a	0.056631304
91	0xbe1b1e0f	-0.15148185
92	0x3d34d4c1	0.04414821
93	0x3d58135d	0.05275284
94	0xbe03e641	-0.12880804
95	0xbdd411d9	-0.10354967
96	0x3d913006	0.07089238
97	0x3d30cec4	0.043165937
98	0xbda06250	-0.078312516
99	0xbd572b05	-0.05253126
100	0x3e45ca3c	0.19315428
101	0xbcfa1d7d	-0.03053164
102	0x3dd6fd8e	0.104975805
103	0x3d8f749f	0.070046656
104	0xbe19298f	-0.1495726
105	0xbe2bbd36	-0.16771397
106	0x3e44de1d	0.19225354
107	0xbc29f8db	-0.010374273
108	0x3dee0592	0.11622156
109	0x3caf9eb6	0.021437984
110	0x3d6903e2	0.05688847
111	0x3e0d41a2	0.13794568
112	0x3e334458	0.1750654
113	0xbe17a20e	-0.14807913
114	0x3c421de8	0.0118479505
115	0x3e117e65	0.14208372
116	0x3e17b263	0.14814143
117	0x3dfc87ad	0.123305656
118	0xbe17c1f5	-0.14820082
119	0xbe159355	-0.14606984
120	0xbdee1e08	-0.11626822
121	0x3d0d3362	0.03447283
122	0x3e52d50f	0.20589088
123	0xbdfa497a	-0.12221046
124	0x3de4fc86	0.111809775
125	0xbe018cd8	-0.12651384
126	0xbe510bfa	-0.20414725
127	0xbd5389d5	-0.05164512
128	0x3df99fd9	0.12188692
129	0x3e4cc33c	0.19996351
130	0xbe0f5274	-0.13996297
131	0x3cd80586	0.026369821
132	0x3e1f7015	0.155701
133	0x3e009e61	0.12560417
134	0x3e0e9fec	0.13928193
135	0x3e01ea5b	0.12687056
136	0x3de06df1	0.1095847
137	0x3d0dd29c	0.03462468
138	0xbe13420d	-0.14380665
139	0xbe1b8ec6	-0.15191182
140	0xbdd322d9	-0.10309381
141	0xbd231fd5	-0.03982528
142	0xbe0f2eb1	-0.13982655
143	0x3d8dad3d	0.06917808
144	0x3d97b736	0.074079916
145	0xbd5bc750	-0.053656876
146	0x3d807f0e	0.06274234
147	0x3d3e61f3	0.04648013
148	0x3deea922	0.11653353
149	0x3e14134f	0.1446049
150	0xbd785c29	-0.060634766
151	0x3e4df368	0.20112383
152	0xbca8b931	-0.020596119
153	0xbbcecb45	-0.0063108527
154	0xbe407395	-0.18794091
155	0xbde9b801	-0.11412049
156	0xbde29237	-0.110630445
157	0xbdb232ec	-0.08701119
158	0x3e10d03f	0.1414194
159	0xbd690012	-0.056884833
160	0xbe0b8d5a	-0.1362814
161	0x3dab1ab2	0.08354701
162	0x3d868c8e	0.065697774
163	0x3e0a1d16	0.13487658
164	0xbdb321f3	-0.0874671
165	0x3d713882	0.05889178
166	0xbd77b667	-0.060476687
167	0xbd0bafb1	-0.0341031
168	0xbe133e26	-0.14379176
169	0xbd9539b3	-0.07286396
170	0xbd2baa14	-0.041910246
171	0x3dd4d4c2	0.10392143
172	0x3d64ac32	0.05582828
173	0x3d8d6d3a	0.06905599
174	0x3e5e8878	0.21731746
175	0x3e5a4eee	0.21319172
176	0x3e1626b8	0.14663208
177	0x3c20012d	0.009765905
178	0xbe0d920b	-0.13825242
179	0x3e228e08	0.15874493
180	0xbd0792f4	-0.03309913
181	0xbb8ce3a1	-0.0042995964
182	0xbe29fe13	-0.16600828
183	0xbd120525	-0.035649437
184	0xbdf641a9	-0.120242424
185	0x3e47dc1e	0.19517562
186	0xbe28bd49	-0.16478457
187	0xbe181e11	-0.1485522
188	0xbb279880	-0.0025573075
189	0xbdd01de8	-0.10161954
190	0x3d9db4bb	0.07700487
191	0xbd9ec23e	-0.077518925
192	0xbdc64963	-0.09681966
193	0x3bb8f1dd	0.0056440667
194	0x3e131500	0.1436348
195	0xbe0b9de9	-0.13634457
196	0x3dbcd542	0.09220363
197	0x3df84d44	0.12124112
198	0x3e4082e9	0.18799938
199	0xbe0f6dce	-0.14006731
200	0x3d1a00b1	0.037598316
201	0xbe2329f5	-0.15933974
202	0x3e250ddc	0.16118568
203	0xbdb252b4	-0.087071806
204	0x3ddff04d	0.109345056
205	0xbbe7cae8	-0.007073749
206	0xbceb7669	-0.028742986
207	0xbc8c203e	-0.017105218
208	0x3ccab8b5	0.024746278
209	0x3db1381c	0.0865328
210	0x3c90a827	0.017658306
211	0x3d351213	0.04420669
212	0xbe408a9c	-0.18802875
213	0x3e1a720c	0.15082568
214	0x3e3f0359	0.18653621
215	0x3e20ddb1	0.15709569
216	0x3e0ef66b	0.13961188
217	0xbe108752	-0.1411412
218	0xbd85770c	-0.06516847
219	0x3e41a0bf	0.18908976
220	0xbe20fb85	-0.15720947
221	0x3e370105	0.17871483
222	0xbe1ba2fe	-0.15198895
223	0xbe068227	-0.13135587
224	0x3de4406e	0.111451015
225	0xbe156249	-0.14588274
226	0xbd5a0b65	-0.053233523
227	0x3e0af074	0.13568288
228	0x3e22b23f	0.15888308
229	0x3e47d8ef	0.19516347
230	0xbd0da054	-0.03457673
231	0xbe1cd199	-0.1531433
232	0x3e46e032	0.19421461
233	0xbd2b4b8c	-0.041820094
234	0xbd9c90ad	-0.07644782
235	0x3d586d0e	0.052838378
236	0xbe0a1433	-0.13484268
237	0x3e06a3fc	0.13148493
238	0x3e01d757	0.12679802
239	0xbe1d1459	-0.15339793
240	0xbe2b2e6d	-0.16716929
241	0xbc8a2353	-0.016862547
242	0x3dae5cf1	0.08513821
243	0xbb7234d1	-0.003695775
244	0xbdc28a5e	-0.09499048
245	0xbc08cd9c	-0.008349802
246	0xbe475bd3	-0.19468622
247	0xbe114f12	-0.14190319
248	0xbe04fa91	-0.12986208
249	0x3e2f544d	0.17122002
250	0x3e2723fe	0.16322324
251	0xbda5b998	-0.0809204
252	0xbbb7a43f	-0.0056042965
253	0x3da56814	0.08076492
254	0x3cc069e8	0.023488
255	0xbde0fcfc	-0.10985753

bias f4 [16]
0	0xbddce003	-0.10784914
1	0x3e0e2a3a	0.13883296
2	0xbb60740a	-0.0034248852
3	0xbe24d4a6	-0.16096744
4	0xbd209599	-0.039205167
5	0xbe331b5c	-0.17490906
6	0xbddddf9f	-0.10833668
7	0xbe0ccd46	-0.1375018
8	0x3e177ad5	0.1479295
9	0xbd4215ae	-0.047383957
10	0xbcf2528d	-0.029580379
11	0x3dc76be4	0.097373754
12	0x3da9e65d	0.082958914
13	0xbe058da3	-0.13042311
14	0x3d8e6b57	0.06954067
15	0x3d9f6fd8	0.077850044

weight f4 [16]
0	0x3f7bd45e	0.9837092
1	0x3f82603b	1.0185617
2	0x3f7c2cd1	0.98505884
3	0x3f81d12d	1.014196
4	0x3f80b646	1.0055625
5	0x3f80bf00	1.0058289
6	0x3f820659	1.0158187
7	0x3f7dd41a	0.99151766
8	0x3f7de472	0.99176705
9	0x3f805618	1.0026274
10	0x3f7cf89f	0.98816866
11	0x3f7f5cf3	0.99751204
12	0x3f81f5be	1.015312
13	0x3f815ea1	1.0107003
14	0x3f7cb36f	0.98711294
15	0x3f7d46ac	0.9893596

bias f4 [16]
0	0xbc9d4042	-0.01919568
1	0x3c8f1dba	0.01747023
2	0xbb888a46	-0.004166874
3	0x3c066f31	0.008205221
4	0x3b39c881	0.002834827
5	0x3bbffcfe	0.0058590164
6	0xba9d4a4a	-0.0012000289
7	0xbc9dfa03	-0.019284254
8	0xbc652108	-0.013984926
9	0x3baf87c6	0.0053567616
10	0x3bbffc43	0.0058589294
11	0xbba08a4e	-0.0048992997
12	0xb984d0c2	-0.0002533254
13	0x3c4b8f9b	0.012424375
14	0xbc72b6e2	-0.0148141105
15	0xbc75e8ea	-0.015009144

running_mean f4 [16]
0	0xbdd680cc	-0.10473785
1	0x3e3037f3	0.17208843
2	0x3d7e3018	0.062057585
3	0xbe5f39b2	-0.21799353
4	0x3dcc51ce	0.099765405
5	0xbdc60d07	-0.096704535
6	0xbdf29926	-0.11845617
7	0xbe0ea5c2	-0.13930419
8	0x3e608fec	0.21929902
9	0xbdbdb3be	-0.09262799
10	0x3e0b0969	0.13577808
11	0x3bb118cc	0.0054045673
12	0x3db55965	0.08854941
13	0xbea1451a	-0.31498033
14	0x3ddc76ad	0.10764823
15	0x3e7588c3	0.23977952

running_var f4 [16]
0	0x3d6d122c	0.05787866
1	0x3db18a75	0.08668987
2	0x3d97fed1	0.07421649
3	0x3d94e1b7	0.07269614
4	0x3df8382b	0.12120088
5	0x3db3e7ff	0.08784484
6	0x3d80090e	0.06251727
7	0x3d9b3440	0.07578325
8	0x3d9d20ec	0.07672295
9	0x3db05c70	0.08611381
10	0x3dea4af7	0.1144008
11	0x3d975a78	0.073903024
12	0x3daab8a0	0.08335996
13	0x3e045781	0.12924005
14	0x3d95a319	0.07306499
15	0x3de9d036	0.11416666

weight f4 [32, 16, 5, 5]
0	0xbcab6af6	-0.020925026
1	0x3d7fc284	0.062441364
2	0xbd091c48	-0.033474237
3	0xbd02c564	-0.031926528
4	0xbd48de06	-0.049039863
5	0x3d75b149	0.059983525
6	0x3ccadf9b	0.024764827
7	0x3d06278b	0.032752555
8	0xbc284b8d	-0.010271919
9	0x3c77c41d	0.015122441
10	0xbbb1f562	-0.0054308632
11	0xbd04b230	-0.032396495
12	0x3c74baa1	0.014937074
13	0xbbbd3af0	-0.005774848
14	0xbc3dc818	-0.011583351
15	0xbcfcc2db	-0.030854633
16	0xbb8433d9	-0.004034501
17	0x3b9a8c8d	0.004716462
18	0x3cb3ab50	0.021932274
19	0xbd0992c6	-0.03358724
20	0x3c577486	0.01315034
21	0xbb9ca1e1	-0.0047800397
22	0x3cfacb8b	0.030614635
23	0x3d223817	0.039604273
24	0xbd02aba4	-0.03190197
25	0x3d891e37	0.06695216
26	0xbcf7f243	-0.030266887
27	0x3c96f61e	0.018427905
28	0xbc0917e3	-0.008367511
29	0x3c826034	0.015915014
30	0xbc318258	-0.010834299
31	0x3d29ae7f	0.041426178
32	0xbd059733	-0.032614898
33	0xbd4b6045	-0.049652357
34	0x3ca5da6d	0.020245755
35	0x3d1251cc	0.03572254
36	0x3d54e065	0.05197181
37	0xbbec820e	-0.007217652
38	0x3d406f43	0.046981107
39	0x3d1517ae	0.036399536
40	0xbccfaf26	-0.025352072
41	0xbd2a106a	-0.04151956
42	0x3cd09cb7	0.025465352
43	0xbce3bd95	-0.02780036
44	0x3cf5d0f2	0.03000686
45	0xbd41affa	-0.047286965
46	0x3d05140e	0.03248983
47	0x3c5c1595	0.01343288
48	0xbb1e1093	-0.0024118766
49	0x3d0f6f45	0.035018224
50	0xbc9f5b83	-0.019452816
51	0xbcc6859f	-0.024233637
52	0xbc469db6	-0.012122562
53	0xbd077521	-0.033070687
54	0x3bcc355b	0.0062319464
55	0xbc9cc7b4	-0.019138195
56	0x3d0b1d5b	0.033963542
57	0x3d02d3f7	0.031940427
58	0x3d2f0609	0.042730365
59	0x3d36fd50	0.04467517
60	0xbd5efe23	-0.054441582
61	0x3bd599b6	0.006518568
62	0x3c27c433	0.010239649
63	0xbd3428d5	-0.043984253
64	0x3cace6a0	0.021106064
65	0xbd03b706	-0.032156967
66	0x3a041880	0.0005039051
67	0x3c2a3e57	0.01039084
68	0x3d2b6fe8	0.04185477
69	0xbca57db1	-0.020201536
70	0xbd1f6bb8	-0.038921088
71	0x3d4bb96f	0.04973739
72	0x3cd97c15	0.026548425
73	0x3d0a687f	0.03379106
74	0x3cbc4ed1	0.022986801
75	0xbd0ea272	-0.03482289
76	0x3c7374fd	0.014859435
77	0xbd35e860	-0.044411063
78	0x3cce185c	0.0251581
79	0x3d14b7cb	0.03630809
80	0x3c91b556	0.017786663
81	0xbd135dd2	-0.035978146
82	0xbd23698f	-0.03989559
83	0x3cb10aa1	0.021611514
84	0xbccb7123	-0.024834221
85	0xbd078e26	-0.033094548
86	0xbd41b192	-0.047288485
87	0xbd0ff650	-0.03514701
88	0xbc9e2cdd	-0.019308502
89	0xbcc989b1	-0.02460179
90	0xbc6f9ceb	-0.0146248145
91	0xbd3fce56	-0.046827637
92	0x3cc48461	0.023988904
93	0xb91e674d	-0.00015106537
94	0xbcf7356d	-0.030176843
95	0x3c0dab62	0.008646818
96	0xbd40417b	-0.046937447
97	0x3cbdcf71	0.023170205
98	0x3cce8bde	0.025213178
99	0xbd60e461	-0.0549053
100	0xbca326e4	-0.019916005
101	0xbc973d14	-0.018461742
102	0xbd229ccc	-0.039700314
103	0xbbb46235	-0.0055048713
104	0xbd5ea474	-0.054356053
105	0xbcba54f8	-0.022745594
106	0x3ce5e3c7	0.028062714
107	0xbcd66ab1	-0.026173921
108	0xbce166b0	-0.027514786
109	0xbd3ce6eb	-0.046118658
110	0x3ce0dfa4	0.02745039
111	0x3bd54f7c	0.0065097194
112	0xbc9e485e	-0.019321617
113	0xbd0ddcae	-0.034634285
114	0x3c183482	0.009289863
115	0x3c33cb78	0.010973804
116	0x3ca370e8	0.019951299
117	0x3c746252	0.0149160195
118	0xbbcccd53	-0.0062500625
119	0xbd056a3d	-0.03257202
120	0x3cec9adf	0.028882442
121	0xbb839005	-0.004014971
122	0xbd002507	-0.031285312
123	0x3d505274	0.050859883
124	0x3d1df9e8	0.038568407
125	0xbcfc8e4d	-0.030829573
126	0xbd191cd0	-0.037380993
127	0xbcf1b15f	-0.029503522
128	0xbd07d9eb	-0.033166807
129	0x3d2dc905	0.042428035
130	0xbcf5f5bc	-0.030024402
131	0x3d0dcb85	0.03461792
132	0xbcfbaf9e	-0.03072339
133	0x3d0fff6f	0.03515571
134	0x3c660f89	0.01404179
135	0xbcca1798	-0.024669454
136	0x3cd2d3c3	0.025735741
137	0xbd2f2e10	-0.042768538
138	0xbcd76cfa	-0.026297081
139	0x3c0708f3	0.00824188
140	0x3d1ddb1b	0.038539033
141	0xbcab882e	-0.020938959
142	0xbcf1048f	-0.029421119
143	0xbcf5cbf9	-0.030004488
144	0xbc94670e	-0.018115547
145	0xbc55d661	-0.0130516
146	0xbb923f51	-0.0044631143
147	0xbc94d2e7	-0.018166972
148	0x3cbf3b75	0.023343781
149	0x3af4fa8a	0.0018690389
150	0xbce9a8af	-0.028522817
151	0xbc943d58	-0.018095657
152	0x3c278329	0.010224142
153	0xbbeda349	-0.007252131
154	0x3cf22b24	0.029561587
155	0xbbe50f3e	-0.0069903424
156	0xbd0f0f88	-0.03492692
157	0xbd0b517f	-0.034013268
158	0xbc14e6da	-0.009088242
159	0xbb176f02	-0.0023106937
160	0xbb106335	-0.0022031788
161	0xbbe2fe88	-0.006927315
162	0x3d024745	0.03180625
163	0xbb86c2cc	-0.004112577
164	0x3d2b7f97	0.041869726
165	0x3cbd8dd1	0.023138912
166	0x3aca0e76	0.0015415687
167	0x3d835919	0.064134784
168	0x3cef6bbd	0.029226178
169	0xbcf8c5f5	-0.03036783
170	0xbc34a5c3	-0.011025849
171	0x3d4c4a59	0.04987559
172	0x3d2cced5	0.042189438
173	0x3d4f0bd3	0.050548386
174	0x3b0d0f2c	0.0021523936
175	0x3d55ee88	0.052229434
176	0x3d30bbfe	0.043148033
177	0x3cf8ed69	0.030386643
178	0xbcd6bfe4	-0.026214547
179	0x3d0e26a4	0.03470482
180	0x3cf4de18	0.029891059
181	0x3bca061a	0.006165278
182	0xba87b947	-0.00103549
183	0x3d10cf88	0.035354167
184	0x3cd5db7b	0.026105633
185	0x3c34a1da	0.011024917
186	0x3d5b808b	0.053589385
187	0x3c33a203	0.01096392
188	0xbce946a5	-0.028476069
189	0xbd14035f	-0.036136027
190	0x3d344c7c	0.044018254
191	0x3d4f65c9	0.05063418
192	0xbc94f105	-0.018181333
193	0x3ce3acb0	0.027792305
194	0xbb7095ad	-0.0036710307
195	0x3b0550fc	0.002034246
196	0xbbeb8977	-0.007188018
197	0x3cd401b7	0.025879724
198	0x3c2d5838	0.010580115
199	0x3d0acdb5	0.033887584
200	0x3ca2a811	0.019855531
201	0x3c2d8c9a	0.010592604
202	0x3d03ac9f	0.032147046
203	0x3c862cee	0.016378846
204	0x3c75cb77	0.015002123
205	0xbc899c49	-0.016798155
206	0x3ccc261a	0.024920512
207	0xbb3b09d1	-0.0028539787
208	0x3ce25fd3	0.027633583
209	0x3d351730	0.044211566
210	0xbc06da32	-0.008230733
211	0x3ce6a97e	0.028156992
212	0xbc6a2c9b	-0.014292861
213	0x3d26b4ec	0.040699884
214	0x3d0fe187	0.03512719
215	0xbcb0bcf1	-0.02157447
216	0xbab64322	-0.0013905505
217	0xbc9d9143	-0.019234305
218	0xbc801397	-0.015634341
219	0xbbf6c459	-0.0075307307
220	0xbb3c559e	-0.0028737555
221	0xbc8c29a9	-0.017109709
222	0xbd22ed22	-0.03977693
223	0xbcc0a95e	-0.02351826
224	0xbb87f26c	-0.004148772
225	0xbc948cd0	-0.01813355
226	0x3ca96fde	0.020683225
227	0x3cd173c6	0.0255679
228	0x3cde4ac0	0.027135253
229	0x3d2b4dbf	0.04182219
230	0xbd385405	-0.045002002
231	0x3d0755c4	0.033040777
232	0xbd5c6d8c	-0.05381541
233	0xbc4e7ee8	-0.012603499
234	0xbc5cb331	-0.013470457
235	0x3c2d92e2	0.010594102
236	0xbd46987e	-0.04848527
237	0xbd04a4f4	-0.032383874
238	0xbd28c706	-0.04120543
239	0xbd0d7e30	-0.03454417
240	0xbc735f10	-0.014854208
241	0x3d42a650	0.04752189
242	0xbc2a7a94	-0.010405201
243	0x3b9a9046	0.0047169058
244	0xbd504ac8	-0.050852567
245	0x3d20043b	0.039066534
246	0xbc5a7d23	-0.013335499
247	0xbd4fc54f	-0.050725278
248	0x3d15e519	0.036595438
249	0xbc291449	-0.010319778
250	0x3d80b7a3	0.06285026
251	0xbcfa849d	-0.030580813
252	0xbd6bcca2	-0.0575682
253	0xbd44ffcb	-0.048095506
254	0x3c8a48e4	0.01688046
255	0x3bcddc49	0.0062823636

bias f4 [32]
0	0xbab18b79	-0.0013545594
1	0xbd2aa70e	-0.041663222
2	0xbd1d6cbf	-0.038433786
3	0xbd2cd363	-0.04219378
4	0xbc64698a	-0.013941178
5	0x3d0a4ad0	0.033762753
6	0xbb32499f	-0.0027204526
7	0x3c35d083	0.011097076
8	0xba489997	-0.0007652281
9	0x3d0f6ce7	0.035015967
10	0x3d423498	0.04741344
11	0xbcad8bd0	-0.021184832
12	0xbd22a2ca	-0.03970603
13	0x3cd78adb	0.026311329
14	0x3d1ab047	0.037765767
15	0x3b850d47	0.0040604207
16	0xbccee72e	-0.02525672
17	0xbc494cc8	-0.0122863725
18	0x3d0c3ce1	0.034237746
19	0x3c603c2f	0.013686224
20	0xbc9a8925	-0.018864224
21	0x3c81b551	0.015833529
22	0x3c33b55b	0.0109685315
23	0xbc8613e2	-0.016366903
24	0xbcdb2ce1	-0.026754798
25	0x3c6a1f7b	0.014289732
26	0x3c76a988	0.015055068
27	0x3d48252d	0.04886358
28	0xbc16d59a	-0.0092062
29	0x3bbaaf0c	0.0056971367
30	0x3c3a8de9	0.011386373
31	0x3ca9d8b4	0.020733215

weight f4 [32]
0	0x3f820094	1.0156426
1	0x3f82d065	1.0219847
2	0x3f81d029	1.014165
3	0x3f82e81f	1.0227088
4	0x3f811d2d	1.0087029
5	0x3f8187c6	1.011956
6	0x3f81ae1a	1.0131257
7	0x3f829055	1.0200297
8	0x3f7fe1c7	0.99953884
9	0x3f81e235	1.0147158
10	0x3f810aab	1.0081381
11	0x3f828472	1.0196669
12	0x3f8316a8	1.0241289
13	0x3f821e9b	1.016559
14	0x3f8109e9	1.0081149
15	0x3f823382	1.0171969
16	0x3f821875	1.0163714
17	0x3f8271ee	1.0191019
18	0x3f82bb54	1.0213418
19	0x3f8345eb	1.0255712
20	0x3f8263c4	1.0186696
21	0x3f80f175	1.0073687
22	0x3f82e176	1.0225055
23	0x3f817823	1.0114788
24	0x3f825e7c	1.0185084
25	0x3f82ec18	1.02283
26	0x3f82b6d3	1.0212044
27	0x3f81c454	1.013804
28	0x3f80eb7d	1.0071865
29	0x3f83036f	1.0235423
30	0x3f82933e	1.0201185
31	0x3f80137c	1.0005946

bias f4 [32]
0	0x3c30bd78	0.01078736
1	0x3c8a96c9	0.016917603
2	0x3b8adcdb	0.004237754
3	0x3c7b88a9	0.015352407
4	0x3ba44435	0.0050130137
5	0x3bf9099e	0.0076000234
6	0x3c700dfd	0.014651773
7	0x3c9097d9	0.017650532
8	0x3a884835	0.0010397496
9	0x3c6de174	0.014519084
10	0x3b4a948f	0.0030911302
11	0x3c9887d0	0.018619448
12	0x3c9ce778	0.019153342
13	0x3c36d3e3	0.011158916
14	0x3c3731bf	0.011181294
15	0x3c13113d	0.008976278
16	0x3c133485	0.00898469
17	0x3c127515	0.008939047
18	0x3ca4f634	0.02013693
19	0x3cb75aa7	0.022382094
20	0x3c22e9d8	0.009943448
21	0x3bdcfa36	0.0067436947
22	0x3ca0bedd	0.01962226
23	0x3a1757d2	0.0005773279
24	0x3c0dc9aa	0.0086540375
25	0x3cbfdeda	0.023421694
26	0x3c6aad18	0.014323495
27	0x3bf26af5	0.007398004
28	0x3c315cb8	0.0108253285
29	0x3c4714a3	0.012150916
30	0x3c8d9941	0.017284991
31	0xbafd5ffd	-0.0019330975

running_mean f4 [32]
0	0xbe6c2c69	-0.23063816
1	0x3edd8332	0.43264157
2	0x3ebd5cff	0.36985013
3	0xbe4f68b5	-0.20254786
4	0xbec0638a	-0.37575942
5	0xbea04628	-0.31303525
6	0xbf9c6819	-1.2219268
7	0xbf2826ee	-0.656844
8	0xbf0a0cb2	-0.5392562
9	0xbe8b7c18	-0.27243114
10	0x3f22d576	0.63606966
11	0x3e7a19df	0.24423932
12	0x3e6c3df7	0.23070513
13	0x3f2f3a59	0.68448406
14	0x3f0467f8	0.51721144
15	0x3f20e66e	0.6285161
16	0x3e9c9fa3	0.30590543
17	0x3eb860aa	0.3601125
18	0xbf64f96c	-0.8944309
19	0xbe9a9dd7	-0.30198547
20	0xbe25ac39	-0.16178979
21	0xbf8e2f53	-1.1108192
22	0x3f3e7771	0.74401003
23	0x3f3b5d1d	0.73188955
24	0x3e97cabf	0.2964687
25	0x3ef9dda3	0.48801908
26	0x3d1b0813	0.037849497
27	0xbaaf9a1b	-0.0013397367
28	0x3f3d9bb6	0.7406572
29	0x3ee41c50	0.4455285
30	0x3f0b3ab8	0.5438647
31	0x3f187c3c	0.59564567

running_var f4 [32]
0	0x3f6e1312	0.9299785
1	0x3fa84207	1.314515
2	0x3fc5f4bd	1.5465313
3	0x3f72b801	0.9481202
4	0x3fde1ff1	1.7353498
5	0x3f74a70e	0.95567405
6	0x40634b6f	3.551479
7	0x3fd4dab5	1.6629244
8	0x3ffdb571	1.9820997
9	0x3fe7adce	1.8099916
10	0x3fffaf73	1.9975418
11	0x3fa95b01	1.3230897
12	0x3f898f02	1.0746768
13	0x3f2459b4	0.64199376
14	0x3f458308	0.7715306
15	0x3f8b7f7c	1.089828
16	0x3fa037fa	1.2517083
17	0x3fb52c73	1.415419
18	0x4006bb9c	2.1052008
19	0x3fced9b9	1.6160194
20	0x3f9dbbc3	1.2322925
21	0x3ff9611b	1.9482759
22	0x3fa254e0	1.2682152
23	0x3f9e0480	1.2345123
24	0x3f5d4e6e	0.864478
25	0x3fc2000d	1.5156265
26	0x3f5fad86	0.8737415
27	0x3f8a1dbd	1.0790325
28	0x3f95c88a	1.1701825
29	0x4001a5f2	2.0257535
30	0x3fb35ce6	1.4012725
31	0x40063702	2.0971074

weight f4 [62, 1568]
0	0x3beffb7b	0.00732368
1	0xbc422886	-0.011850482
2	0x3d02a183	0.03189231
3	0x3c8c3a3f	0.017117618
4	0x3d1a222f	0.037630256
5	0xbc204f04	-0.009784464
6	0x3cd4de57	0.025984926
7	0x3ca27c13	0.019834554
8	0xbac187ab	-0.0014765164
9	0xbc97d6ac	-0.01853498
10	0x3b56f8b8	0.0032802057
11	0x3c59bf51	0.013290242
12	0xbc36f0fd	-0.0111658545
13	0x3c8b872e	0.017032232
14	0x3c2b189c	0.010442879
15	0x3ce2e7c9	0.027698414
16	0x3cebd421	0.028787674
17	0x3c160bb4	0.009158064
18	0xbc1ce76e	-0.0095766615
19	0xbc771ab9	-0.015082055
20	0x3cd638c2	0.026150111
21	0xbba6a303	-0.0050853505
22	0xbb7b9a77	-0.0038391629
23	0xbc2a8a26	-0.010408914
24	0xbc937112	-0.017998252
25	0x3ce92206	0.028458606
26	0x3ca3af83	0.019981151
27	0x3c52e4fb	0.012871976
28	0x3cd056e6	0.025432061
29	0x3c245cf4	0.010031927
30	0x3cb6e4d1	0.022325905
31	0x3a8e27d2	0.0010845608
32	0x3ce2b15e	0.027672466
33	0x3b0ba76e	0.0021309513
34	0x3ccdd680	0.025126696
35	0x3d054dc9	0.032544885
36	0x3b8654f3	0.004099482
37	0xbca4a14c	-0.020096444
38	0x3d147eec	0.036253855
39	0xbcaa97f2	-0.020824406
40	0xbbee5ac6	-0.0072740046
41	0x3c89d0fd	0.016823286
42	0x3c43dcab	0.011954467
43	0xbc40e759	-0.011773908
44	0xbc82dc42	-0.015974168
45	0x3b93d742	0.0045117447
46	0xba127965	-0.0005587547
47	0xbb923e21	-0.0044629727
48	0x3cb984af	0.022646276
49	0x3bf9d95f	0.0076247896
50	0x3aee22d4	0.0018168339
51	0x3cb77707	0.022395624
52	0x3c9a7d50	0.018858582
53	0x3ce0d465	0.027445028
54	0x3bb4e851	0.0055208583
55	0x3c6259cb	0.013815354
56	0x3c7c09a2	0.015383156
57	0xbab0f3b7	-0.0013500367
58	0x3cef71c7	0.029229058
59	0x3c9a122f	0.018807499
60	0xbbdac6cc	-0.0066765305
61	0x3d08fa80	0.03344202
62	0x3ba8dc4f	0.005153216
63	0xbc978f61	-0.018500986
64	0x3b388c5a	0.0028159828
65	0xbca95f3d	-0.020675296
66	0xbca34e57	-0.019934816
67	0xbbcae108	-0.0061913766
68	0xbbbd4fe6	-0.005777347
69	0x3d10e424	0.03537382
70	0x3cca8607	0.024722112
71	0x3ca8a868	0.020588115
72	0x3c901e75	0.017592648
73	0xbcc11777	-0.02357076
74	0x3bb1aef9	0.0054224697
75	0x3cb85a4c	0.022503994
76	0x3c945bf9	0.018110262
77	0x3c61cce9	0.013781765
78	0x3cb26107	0.021774782
79	0x3d2033fc	0.039112076
80	0x3d136176	0.035981618
81	0xbc9e28d4	-0.019306578
82	0x3c1324dc	0.008980956
83	0xbc636070	-0.013877973
84	0x3c274370	0.010208949
85	0xbc815d2a	-0.015791494
86	0x3d1df60e	0.038564734
87	0x3d19dbcf	0.03756314
88	0x3bc67d77	0.006057437
89	0x3c8f8689	0.017520206
90	0x3c112629	0.008859196
91	0xbcc3b720	-0.023891032
92	0x3c0a8b2d	0.008456034
93	0xbc5005ac	-0.012696665
94	0x3b8453eb	0.004038324
95	0x3d01eecc	0.031721875
96	0x3b437040	0.0029821545
97	0xbc0d8bc9	-0.008639284
98	0xbcfb4133	-0.030670738
99	0x3bb3b057	0.005483668
100	0x3c785617	0.015157244
101	0x3c0422f8	0.008064978
102	0x3c4a57f6	0.012350073
103	0x3d05870e	0.0325995
104	0xbc852a9d	-0.016255671
105	0x3bd90dda	0.0066239657
106	0x3bac8470	0.005264811
107	0xbc6658ad	-0.014059228
108	0xbc7f4196	-0.015579602
109	0x3c2a16aa	0.01038138
110	0xbc3b0cae	-0.011416597
111	0x3ccd0832	0.025028322
112	0xbc7dcd1e	-0.015490798
113	0x3c0f5511	0.008748309
114	0xbc454ccd	-0.0120422365
115	0xbcb9f8fe	-0.022701737
116	0x3d0fcdc8	0.035108358
117	0x3bbf0340	0.005829245
118	0xbc4c850d	-0.012482894
119	0x3ce8b885	0.028408298
120	0x3c9a8d08	0.018866077
121	0xbcb6870e	-0.022281196
122	0xbcd92a83	-0.026509529
123	0xbb0e5ad2	-0.0021721614
124	0xbc655e65	-0.013999556
125	0x3b5d957f	0.003381103
126	0x3cb79ee8	0.02241464
127	0x3c3dd0e0	0.011585444
128	0x3c85cae9	0.016332107
129	0x3d03042f	0.03198641
130	0xbc173b66	-0.00923047
131	0x3c5d7ee8	0.013519026
132	0x3cb60101	0.022217276
133	0xbc8d6737	-0.01726113
134	0x3cd2df5c	0.025741272
135	0x3b81f8b1	0.003966414
136	0x3d025af8	0.031825036
137	0xbbc67b3f	-0.0060571725
138	0xbbb4141d	-0.0054955618
139	0xbbf66986	-0.0075199036
140	0xbd25cd1a	-0.040478803
141	0xbc524e1c	-0.012836006
142	0xbb17e751	-0.0023178647
143	0x3c9ea2cf	0.019364743
144	0xbb73d533	-0.0037205934
145	0x3c5aa616	0.013345262
146	0xbccb8f46	-0.024848592
147	0x3bb35bfe	0.005473613
148	0xbc403d86	-0.011733418
149	0xbb3e8d92	-0.0029076082
150	0xbccb2bf2	-0.024801228
151	0x3c546b35	0.012965013
152	0xbc2a0acc	-0.010378551
153	0x3ba09732	0.0049008364
154	0xbbec83b2	-0.0072178477
155	0x3bc56def	0.006025068
156	0xbab09ff4	-0.0013475404
157	0x3d052e79	0.032515023
158	0x3c19b5ae	0.009381695
159	0x3d185c00	0.037197113
160	0x3b1d6524	0.0024016583
161	0x3bf0fbaf	0.007354222
162	0x3c6fd0db	0.014637197
163	0xbc1ecc13	-0.00969221
164	0x3c9ddb93	0.01926974
165	0x3c4036c4	0.011731807
166	0x3c342480	0.01099503
167	0x3ca05e42	0.019576196
168	0x3c551c2e	0.013007207
169	0xbb766b44	-0.0037600556
170	0x3bee10f1	0.007265203
171	0x3c327926	0.010893142
172	0xbd0c0daf	-0.034192737
173	0x3c00641d	0.007836369
174	0x3c05651a	0.00814178
175	0xbcdec1d6	-0.027192038
176	0x3c9f060f	0.019412069
177	0xbbcb6eb0	-0.0062082633
178	0xbc628777	-0.013826243
179	0xbba5f110	-0.0050641373
180	0x3b098086	0.0020981147
181	0x3c95c605	0.0182829
182	0xbc9c6a52	-0.019093666
183	0x3ca38555	0.019961039
184	0xbc6338df	-0.01386854
185	0xbae39c44	-0.0017365296
186	0x3ccd463b	0.025057903
187	0x3cdfe363	0.027330106
188	0x3cc69238	0.024239644
189	0x3c396875	0.011316408
190	0xbc4dc358	-0.012558781
191	0xbbd30fd1	-0.0064410944
192	0xbbc8006d	-0.0061035664
193	0xbbe995f5	-0.007128472
194	0x3c96b66e	0.018397536
195	0x3bb0ce4a	0.0053956853
196	0xbaa6263f	-0.0012676193
197	0xbb08de67	-0.0020884515
198	0x3ae067a6	0.0017120733
199	0xbc6f136e	-0.014592035
200	0x3a6d72ef	0.0009057959
201	0x3cfb0780	0.030643225
202	0xbc0269fa	-0.007959837
203	0x3bc30bef	0.0059523503
204	0xbcae566c	-0.021281444
205	0xbc891810	-0.016735107
206	0x3bb64bc5	0.0055632317
207	0x3c63957c	0.01389062
208	0xbc6373d9	-0.013882601
209	0x3ccf9eaf	0.02534422
210	0x3c809734	0.0156971
211	0x3c07e3b1	0.008294032
212	0xbbf1cde4	-0.0073792804
213	0x3cc4b424	0.024011679
214	0xbcd210fe	-0.025642868
215	0xbc7b65fc	-0.015344139
216	0x3c9a9b0b	0.018872758
217	0xbb59e9f3	-0.0033251017
218	0x3c4b444b	0.012406419
219	0x3cc655b4	0.024210788
220	0xbc8f0c4c	-0.017461918
221	0xbcd64508	-0.026155964
222	0x3cbfff7e	0.023437258
223	0x3cc79adf	0.02436584
224	0x3b2ea6df	0.0026649756
225	0x3b4585f8	0.0030139666
226	0x3c966ed4	0.018363394
227	0x3c031be0	0.008002251
228	0x3d03374f	0.03203517
229	0x3c1bcdc2	0.009509506
230	0xbc2ccdf3	-0.010547149
231	0xbc311ab8	-0.010809593
232	0xbc9f6894	-0.019459046
233	0x3a45408d	0.00075245724
234	0x3bca0478	0.0061650835
235	0x3bf13226	0.0073607145
236	0x3ccbe55b	0.024889639
237	0xbb55794b	-0.0032573517
238	0x3ccaee06	0.024771702
239	0xbc40d924	-0.01177052
240	0xbbc2dff4	-0.0059471074
241	0x3cb5f8fd	0.022213453
242	0x3c9032ea	0.017602403
243	0xbc6597c6	-0.014013236
244	0x3b90cc35	0.0044188746
245	0xbc9ec21b	-0.019379666
246	0xbc7968a9	-0.015222707
247	0xbcb186c8	-0.021670714
248	0xba4bb5b3	-0.0007770911
249	0xbc006bc7	-0.007838196
250	0x3c917865	0.017757604
251	0xbc66bbef	-0.014082893
252	0xbba04aed	-0.0048917443
253	0xbc620f6c	-0.013797622
254	0xbba7f306	-0.005125406
255	0x3cc46444	0.023973592

bias f4 [62]
0	0x3aa8cb34	0.0012877942
1	0x3d16ec57	0.036846485
2	0x3b877617	0.0041339505
3	0xbc7a563f	-0.015279352
4	0x3ce7aba3	0.028280085
5	0x3cd46931	0.025929065
6	0xbc3e425f	-0.011612504
7	0xbbd9b3f4	-0.0066437665
8	0x3c3ae1ef	0.011406406
9	0xbacc0ef6	-0.0015568424
10	0xbcc84967	-0.024449063
11	0xbb82072f	-0.0039681415
12	0xbcf94a34	-0.03043089
13	0xbc24a70d	-0.010049594
14	0xbce7c668	-0.02829285
15	0xbc5d611d	-0.013511923
16	0x3bbbe865	0.0057344907
17	0x3c89c553	0.016817724
18	0xbd0412b4	-0.0322444
19	0xbae62779	-0.0017559371
20	0xbbc0afed	-0.005880347
21	0xbd018bde	-0.03162753
22	0xbc24c9a2	-0.010057839
23	0xbbe29c54	-0.0069156084
24	0xbcd0cc4a	-0.025488038
25	0xbc2c53bf	-0.0105180135
26	0xbc0d8b7d	-0.008639214
27	0xbb330163	-0.002731406
28	0xbc2d84d2	-0.010590749
29	0xbbc488ea	-0.0059977667
30	0xbbca79ef	-0.0061790864
31	0xbc2e7adf	-0.010649412
32	0xbc785504	-0.015156988
33	0xbcce1e72	-0.025161002
34	0x3c4e041c	0.012574222
35	0x3bb52e6e	0.0055292165
36	0xbc19eba2	-0.009394558
37	0xbcf6222c	-0.030045591
38	0x3ad109ca	0.0015948352
39	0xbc57d419	-0.013173127
40	0xbc3aff5a	-0.01141342
41	0xbc58c0da	-0.013229573
42	0x3c689b0c	0.014197122
43	0xbb9ec817	-0.00484563
44	0xbc0502be	-0.00811833
45	0x3b31b3a5	0.0027115133
46	0xbcecbbf6	-0.02889822
47	0xbaa99160	-0.0012937002
48	0x3af9c6b6	0.0019056413
49	0xbc9fd2a7	-0.019509627
50	0xbcfc5417	-0.030801816
51	0x3c38a70e	0.011270298
52	0x3c2ab041	0.010417999
53	0xbc41a071	-0.011818037
54	0xbbc32123	-0.005954878
55	0x3c0fe54c	0.008782696
56	0x3c244c98	0.010028027
57	0xbbd137ca	-0.0063848244
58	0xbc41312c	-0.011791509
59	0xbc3df740	-0.0115945935
60	0x3b3a8dcf	0.0028465872
61	0x3c6d3ee2	0.014480324
