architecture/models/randomModel2.ckpt (torch, 450921 bytes, 14 tensors)

weight f4 [16, 1, 5, 5]
0	0x3d955aa0	0.07292676
1	0xbde11a98	-0.109914005
2	0xbd853157	-0.065035515
3	0x3d8bf284	0.068333656
4	0xbe489970	-0.19589782
5	0x3db1ebdd	0.086875655
6	0xbd4ba905	-0.049721736
7	0x3dc3686d	0.09541402
8	0x3cabe449	0.020982878
9	0xbd0f50c0	-0.03498912
10	0x3cd6e117	0.026230378
11	0x3c56b9dc	0.013105836
12	0x3defffad	0.11718688
13	0xbd4b7681	-0.04967356
14	0xbc087e1a	-0.008330846
15	0xbd34c051	-0.04412872
16	0x3ce80d86	0.028326761
17	0x3cfc7bf4	0.030820824
18	0x3e48f80e	0.19625875
19	0x3da69e76	0.08135693
20	0xbda9341e	-0.08261894
21	0xbe061a87	-0.13096057
22	0xbd241bd4	-0.0400656
23	0xbd91e0b0	-0.07122934
24	0xbd011978	-0.03151843
25	0xbcd4570a	-0.02592041
26	0x3db28604	0.08716968
27	0x3d9254e2	0.07145096
28	0xbe737f1e	-0.2377896
29	0x3da47669	0.080303974
30	0x3b86e397	0.0041164863
31	0x3e248ead	0.16070051
32	0x3dd7c74c	0.1053606
33	0xbe5267e4	-0.20547444
34	0xbe59420a	-0.21216598
35	0xbe0f73ab	-0.14008968
36	0x3e1b3b35	0.15159304
37	0xbd5f6669	-0.054541025
38	0x3d846840	0.064651966
39	0xbdec3046	-0.11532645
40	0x3e34bc6f	0.17650007
41	0xbdb29329	-0.08719475
42	0x3e15709f	0.14593743
43	0xbc1dea1e	-0.009638337
44	0xbdfb07f0	-0.12257373
45	0x3e024d3d	0.12724777
46	0xbd964080	-0.07336521
47	0x3dbc5496	0.09195821
48	0xbd19b348	-0.03752449
49	0xbcae3ba1	-0.021268668
50	0xbe62fc4e	-0.22166559
51	0xbdeb2a08	-0.11482626
52	0x3dc94b50	0.09828818
53	0xbd61998e	-0.05507808
54	0x3e38f608	0.18062603
55	0x3df0ece9	0.11763937
56	0xbd105271	-0.035234872
57	0xbe08a01c	-0.13342327
58	0x3df2fd45	0.118647136
59	0x3d243d6c	0.04009764
60	0xbe2877e0	-0.16451979
61	0x3deaf7c6	0.1147304
62	0x3e053904	0.13010031
63	0x3e45c6ae	0.19314072
64	0xbde0cf4e	-0.1097704
65	0xbd6a1b17	-0.05715474
66	0xbae542b7	-0.0017491196
67	0x3d325687	0.04353955
68	0xbe0ac67c	-0.13552278
69	0xbe0cf27e	-0.13764378
70	0x3dcff8f0	0.10154903
71	0xbd1c684b	-0.0381854
72	0x3dd86bec	0.105674595
73	0x3c636578	0.0138791725
74	0x3d69b5bd	0.057058085
75	0x3c6f5931	0.014608667
76	0x3d642e89	0.055708442
77	0x3db68d09	0.08913619
78	0xbe393f3d	-0.1809053
79	0x3de520ab	0.111878715
80	0xbdf1bf21	-0.11804033
81	0xbe0b62a5	-0.13611849
82	0x3cabe8e2	0.02098507
83	0xbc790396	-0.015198609
84	0x3e0950d5	0.13409741
85	0xbd9c6b10	-0.07637608
86	0xbe377a28	-0.17917693
87	0x3e18df65	0.14928968
88	0xbc6de10d	-0.014518988
89	0x3dfa1a78	0.1221208
90	0x3d5d79d2	0.054071255
91	0xbe21685c	-0.15762466
92	0x3d555065	0.052078623
93	0x3d80eaf4	0.06294814
94	0xbe0045b2	-0.12526587
95	0xbdf92f05	-0.121671714
96	0x3d92a736	0.07160799
97	0x3d6635a8	0.056203514
98	0xbd8d0af5	-0.068868555
99	0xbd498250	-0.04919654
100	0x3e40a9de	0.18814799
101	0xbd2ac256	-0.04168924
102	0x3dccbd9a	0.09997101
103	0x3d88ceb4	0.066800505
104	0xbe21bfac	-0.15795773
105	0xbe417348	-0.18891633
106	0x3e30c896	0.17264017
107	0xbc902ded	-0.017600024
108	0x3dddb820	0.10826135
109	0x3c2675b2	0.010159897
110	0x3cb22315	0.021745244
111	0x3de60b3f	0.11232614
112	0x3e2c8d41	0.16850759
113	0xbe1eab37	-0.15495001
114	0x3bba216e	0.0056802547
115	0x3de32bd2	0.110923424
116	0x3e1a97ec	0.15097016
117	0x3e0611ac	0.13092679
118	0xbe0d2a28	-0.13785613
119	0xbe0cb81d	-0.13742109
120	0xbe09355f	-0.13399266
121	0x3d2eceb6	0.042677604
122	0x3e643e6d	0.22289439
123	0xbdcc9d19	-0.099909015
124	0x3e081cb5	0.13292201
125	0xbe1e976d	-0.15487452
126	0xbe65dd3f	-0.2244768
127	0xbd899426	-0.0671771
128	0x3dd7c889	0.10536296
129	0x3e31caa5	0.17362459
130	0xbe1dcaee	-0.15409443
131	0x3cacb8c6	0.0210842
132	0x3e1c91f2	0.15290049
133	0x3dd4b13c	0.10385367
134	0x3dd36ef2	0.103238955
135	0x3e034b48	0.12821686
136	0x3de5de23	0.1122401
137	0x3d09f72d	0.03368299
138	0xbe3259ce	-0.1741707
139	0xbe393b3a	-0.18089
140	0xbdbcbbe2	-0.09215523
141	0xbd0d727a	-0.034533
142	0xbe168cd8	-0.14702165
143	0x3d292d8d	0.041303206
144	0x3d6af193	0.05735929
145	0xbd28a9c0	-0.04117751
146	0x3d853731	0.065046676
147	0x3d153257	0.03642496
148	0x3dd22140	0.10260248
149	0x3e14bee7	0.14525948
150	0xbd56ffbe	-0.05248999
151	0x3e419275	0.18903525
152	0xbd18175c	-0.037131652
153	0xbc8d781b	-0.017269185
154	0xbe39f651	-0.18160369
155	0xbde6efce	-0.11276208
156	0xbe04c6b0	-0.12966418
157	0xbded75c8	-0.115947306
158	0x3de65671	0.11246956
159	0xbd79ffb6	-0.06103488
160	0xbe16a6a8	-0.14712012
161	0x3d82770b	0.06370362
162	0x3d24d928	0.04024616
163	0x3de8933d	0.113562085
164	0xbdad92d0	-0.08475268
165	0x3d48ede3	0.04905499
166	0xbd88c838	-0.06678814
167	0xbd0c0e24	-0.034193173
168	0xbe07bfd0	-0.13256764
169	0xbd755417	-0.059894647
170	0xbd0589e7	-0.032602217
171	0x3dedfb25	0.11620168
172	0x3da1e618	0.07905215
173	0x3db9ee0d	0.09078608
174	0x3e6a67c2	0.22891143
175	0x3e618c90	0.22026277
176	0x3e2173fd	0.15766902
177	0x3ca588c2	0.020206813
178	0xbe146c44	-0.14494425
179	0x3e145942	0.14487174
180	0xbd0ef953	-0.034905743
181	0xbbbb4f36	-0.00571623
182	0xbe261c84	-0.16221815
183	0xbd02d006	-0.031936668
184	0xbdd24862	-0.10267712
185	0x3e332256	0.17493567
186	0xbe39d656	-0.18148169
187	0xbe1f2405	-0.15541084
188	0x3b82a1b8	0.0039865635
189	0xbd95c6f5	-0.07313339
190	0x3d5ce258	0.053926796
191	0xbdc48354	-0.09595361
192	0xbdd7e3f9	-0.10541529
193	0x3c277d78	0.010222785
194	0x3e2aa469	0.1666428
195	0xbe12e0b8	-0.14343536
196	0x3daed7ee	0.08537279
197	0x3df4e628	0.11957961
198	0x3e49addf	0.19695233
199	0xbdf3ccc9	-0.11904294
200	0x3d647166	0.055772208
201	0xbe14220e	-0.14466116
202	0x3e334fb5	0.17510875
203	0xbda36b7b	-0.07979485
204	0x3dc40f5a	0.095732406
205	0xbc17287e	-0.009225963
206	0xbd0913a1	-0.033465985
207	0xbc86fa29	-0.016476708
208	0x3cc4a00b	0.024002096
209	0x3d556d47	0.052106168
210	0x3c2430a8	0.010021366
211	0x3ceff321	0.029290738
212	0xbe4e3093	-0.20135717
213	0x3e0daed1	0.13836218
214	0x3e2fbc11	0.17161585
215	0x3e1c7838	0.15280235
216	0x3dfdf523	0.12400272
217	0xbe29a34b	-0.16566198
218	0xbdb6e891	-0.08931077
219	0x3e338800	0.17532349
220	0xbe243275	-0.16034873
221	0x3e28b7e5	0.164764
222	0xbe3391b3	-0.17536049
223	0xbe223e34	-0.15844041
224	0x3dbf6fcc	0.093474954
225	0xbe21fa32	-0.15818098
226	0xbd682e33	-0.056684684
227	0x3e05a387	0.13050662
228	0x3e1fe441	0.15614416
229	0x3e3dd6bb	0.18538944
230	0xbd22f89b	-0.03978787
231	0xbe20103d	-0.15631194
232	0x3e43c170	0.1911676
233	0xbd2bab52	-0.04191143
234	0xbdaf4083	-0.085572265
235	0x3d430b56	0.047618233
236	0xbe0d2a97	-0.13785778
237	0x3e06c839	0.13162316
238	0x3e064258	0.13111246
239	0xbe1ea984	-0.15494353
240	0xbe31a8ee	-0.17349598
241	0xbcab0e0b	-0.02088072
242	0x3db55af7	0.08855241
243	0x3bcc233e	0.006229787
244	0xbdb71a44	-0.08940557
245	0xbc7faeb3	-0.015605616
246	0xbe4cb43f	-0.19990633
247	0xbe09ab5f	-0.13444279
248	0xbdf1b7d9	-0.11802644
249	0x3e355ceb	0.17711227
250	0x3e18fd2e	0.1494033
251	0xbdb83869	-0.089951344
252	0xbc510006	-0.012756353
253	0x3d9a0ca4	0.07521942
254	0x3ca4fbe0	0.020139635
255	0xbdf3cf1b	-0.119047366

bias f4 [16]
0	0xbddd671a	-0.10810681
1	0x3e0d77b4	0.13815194
2	0x3a3194f1	0.0006774208
3	0xbe18a5fe	-0.14907071
4	0xbd45af9e	-0.048263185
5	0xbe34bf0d	-0.17651005
6	0xbdd87e9b	-0.10571023
7	0xbe0888e3	-0.13333468
8	0x3e170c13	0.147507
9	0xbd3f39ca	-0.04668597
10	0xbcf1097c	-0.029423468
11	0x3dbcb77d	0.09214685
12	0x3daf8266	0.085697934
13	0xbe021171	-0.12701966
14	0x3d87b1a3	0.066256784
15	0x3dadef86	0.08492951

weight f4 [16]
0	0x3f7f9d0f	0.9984903
1	0x3f841194	1.0317864
2	0x3f75b60a	0.95980895
3	0x3f8501b4	1.0391145
4	0x3f791663	0.97299784
5	0x3f7a8138	0.9785342
6	0x3f848034	1.0351624
7	0x3f82ea36	1.0227726
8	0x3f746251	0.9546252
9	0x3f8198f0	1.0124798
10	0x3f7028c4	0.93812203
11	0x3f882ba4	1.0638318
12	0x3f847faf	1.0351466
13	0x3f857841	1.0427324
14	0x3f7a7ab8	0.97843504
15	0x3f77fd5f	0.9687099

bias f4 [16]
0	0xbd965e68	-0.07342225
1	0x3b410de2	0.0029457738
2	0xbd380929	-0.04493061
3	0x3b9359da	0.004496795
4	0xbc8400e5	-0.016113708
5	0xbbc3cfba	-0.0059756907
6	0xbd479693	-0.048727583
7	0xbc942360	-0.018083274
8	0xbd79141a	-0.060810186
9	0xbcbc197e	-0.022961374
10	0xbca38e3f	-0.01996529
11	0x3cab71fd	0.020928377
12	0xbcb2143f	-0.02173817
13	0x3d313946	0.04326751
14	0xbd95fd5a	-0.073237136
15	0xbd3b1dff	-0.045682903

running_mean f4 [16]
0	0xbdf7ad40	-0.12093592
1	0x3dfde22b	0.12396654
2	0x3c9edf01	0.019393446
3	0xbe482096	-0.1954368
4	0x3d88e812	0.06684889
5	0xbe23dcd1	-0.16002204
6	0xbe05b83c	-0.13058561
7	0xbe06d848	-0.13168442
8	0x3e419d99	0.18907775
9	0xbdde881e	-0.10865806
10	0x3e180003	0.14843754
11	0x3b8433d9	0.004034501
12	0x3da8ba4b	0.082386576
13	0xbeb588e2	-0.35455996
14	0x3dcd579c	0.10026476
15	0x3e4fd638	0.20296562

running_var f4 [16]
0	0x3bc9042e	0.0061345315
1	0x3cf26121	0.02958733
2	0x3c8a4dec	0.01688286
3	0x3c902dc8	0.017599955
4	0x3d442ec0	0.047896147
5	0x3cc2791b	0.023739388
6	0x3c950a85	0.018193493
7	0x3cca9c07	0.024732603
8	0x3c78a86f	0.015176876
9	0x3d1522e2	0.03641022
10	0x3d8e9c3d	0.06963394
11	0x3d0a50f6	0.033768617
12	0x3d15ae60	0.03654325
13	0x3ddca59e	0.107737765
14	0x3ca25b50	0.019818932
15	0x3d115eb7	0.035490718

weight f4 [32, 16, 5, 5]
0	0xbca090de	-0.019600328
1	0x3d8b0971	0.0678891
2	0xbce46c6a	-0.027883727
3	0xbcffbc2c	-0.031217657
4	0xbd4036d6	-0.046927296
5	0x3d588965	0.052865405
6	0x3c99529d	0.01871615
7	0x3cbdcdb7	0.023169382
8	0xbc5bd5f4	-0.01341771
9	0x3c5cbbb0	0.013472483
10	0xbc3f12e1	-0.011662216
11	0xbd2bcc21	-0.04194272
12	0x3c493e1c	0.012282874
13	0xbabe6640	-0.0014526322
14	0xbc1f1fdc	-0.009712186
15	0xbd238eae	-0.03993099
16	0xbc89abdc	-0.016805582
17	0xbb9e16ef	-0.0048245112
18	0x3cc78ca0	0.024359047
19	0xbcf6254f	-0.030047087
20	0x3bbf2e90	0.005834408
21	0xbc58dec8	-0.013236709
22	0x3c90de34	0.01768408
23	0x3cfc5afe	0.030805107
24	0xbd0f8b59	-0.035045
25	0x3d954358	0.072882354
26	0xbcb720c9	-0.0223545
27	0x3c92b104	0.017906673
28	0xbbf40a04	-0.007447483
29	0x3cc6003d	0.024170035
30	0xbbd4d389	-0.0064949435
31	0x3d3e7b73	0.04650445
32	0xbd001e8b	-0.031279128
33	0xbd2cdb9e	-0.04220163
34	0x3d036481	0.03207827
35	0x3d23652f	0.039891418
36	0x3d60ecc8	0.054913312
37	0xbb5e4826	-0.0033917516
38	0x3d56c50f	0.052434023
39	0x3d2c1a27	0.04201713
40	0xbcb3c466	-0.021944236
41	0xbd229eab	-0.0397021
42	0x3ce210eb	0.027595958
43	0xbcea2e6a	-0.028586585
44	0x3ceedf2e	0.029159155
45	0xbd44336a	-0.047900595
46	0x3cf40e03	0.029791838
47	0x3c2d4150	0.010574654
48	0xbc1bdcaf	-0.009513064
49	0x3d17b6fe	0.03703975
50	0xbc2f554c	-0.010701489
51	0xbcd8c5f0	-0.026461571
52	0xbc69dbd8	-0.014273606
53	0xbcd9465e	-0.026522812
54	0x3c6e1e81	0.01453364
55	0xbc7b017f	-0.015320181
56	0x3ce9cc01	0.02853966
57	0x3cf7a150	0.030228287
58	0x3d3968aa	0.04526583
59	0x3d42813d	0.047486532
60	0xbd546267	-0.051851656
61	0x3bd3d76a	0.0064648883
62	0x3c450f4b	0.012027572
63	0xbd2adb03	-0.041712772
64	0x3cc4f51c	0.024042659
65	0xbcd34d5b	-0.025793722
66	0x3bdf2ed7	0.0068110037
67	0x3c21d6d6	0.009877881
68	0x3d25d7c9	0.040488992
69	0xbc661bf9	-0.014044755
70	0xbcf240fb	-0.029572
71	0x3d63ab16	0.055583082
72	0x3ce33e64	0.027739711
73	0x3d0e9826	0.03481307
74	0x3cc699ca	0.024243254
75	0xbd105d77	-0.035245385
76	0x3c0ca50a	0.00858427
77	0xbd24861e	-0.040166967
78	0x3cfd095f	0.030888258
79	0x3d103c61	0.03521383
80	0x3c20d66a	0.009816745
81	0xbd1af81b	-0.037834268
82	0xbd0e30a2	-0.03471435
83	0x3cdba194	0.026810445
84	0xbcaa879b	-0.020816615
85	0xbd26d5ac	-0.040731117
86	0xbd255f55	-0.04037412
87	0xbd185b52	-0.037196465
88	0xbcb8a103	-0.022537714
89	0xbc923044	-0.01784528
90	0xbc5d7872	-0.013517486
91	0xbd494cc3	-0.04914547
92	0x3c74264d	0.01490171
93	0x3c9a2b81	0.018819572
94	0xbcb4978a	-0.022044916
95	0x3bd934f8	0.006628629
96	0xbd732b9b	-0.059367757
97	0x3c80f911	0.015743764
98	0x3d1677da	0.036735393
99	0xbd50a485	-0.050938148
100	0xbc65ebb3	-0.014033246
101	0xbc581c37	-0.013190321
102	0xbd2b99a4	-0.04189457
103	0xbbaa999d	-0.0052063004
104	0xbd4c365f	-0.04985654
105	0xbca09f8c	-0.019607328
106	0x3cc922e6	0.024552774
107	0xbce4d32d	-0.027932728
108	0xbcce5f35	-0.025191883
109	0xbd336d39	-0.043805335
110	0x3d000c9c	0.031262025
111	0x3bd3fcae	0.0064693308
112	0xbc8639c7	-0.016384972
113	0xbd0858c1	-0.033287767
114	0x3c4521e5	0.012032007
115	0x3c9972cf	0.018731503
116	0x3cb759bd	0.022381658
117	0x3c85bc35	0.016325096
118	0xbc15d652	-0.009145336
119	0xbcf6c51c	-0.030123286
120	0x3d0d4916	0.03449353
121	0xbadf23a0	-0.0017024167
122	0xbd048d7b	-0.03236149
123	0x3d373c16	0.044735037
124	0x3d1d584b	0.03841428
125	0xbca6e245	-0.020371566
126	0xbd218088	-0.039429218
127	0xbd022478	-0.03177306
128	0xbcfa31e1	-0.030541362
129	0x3d505a18	0.05086717
130	0xbcb3c027	-0.021942211
131	0x3cf64c69	0.030065732
132	0xbd0491a6	-0.032365464
133	0x3d20dc20	0.039272428
134	0x3ca74335	0.020417789
135	0xbcc29c29	-0.023756104
136	0x3cc6cfeb	0.024269065
137	0xbd271b9e	-0.040797822
138	0xbcb0c27c	-0.021577112
139	0x3c585b6b	0.0132053895
140	0x3d2dc20d	0.04242139
141	0xbc9548ec	-0.018223248
142	0xbceffa39	-0.02929412
143	0xbcefa4b2	-0.029253338
144	0xbc771e8c	-0.015082967
145	0xbc4df130	-0.012569711
146	0xbb884726	-0.004158872
147	0xbcb0d9c2	-0.02158821
148	0x3cbf6133	0.023361778
149	0x3a7735b2	0.00094303035
150	0xbcc5be98	-0.024138734
151	0xbcb38a8f	-0.021916656
152	0x389691bb	7.179702e-05
153	0xbc15a144	-0.009132687
154	0x3d049abe	0.032374136
155	0x3b8c8cc5	0.004289242
156	0xbd126344	-0.0357392
157	0xbcfbe849	-0.03075041
158	0xba8f46e9	-0.0010931167
159	0x3c8aa422	0.016923968
160	0x3c3cf022	0.0115318615
161	0x3b954386	0.0045551686
162	0x3d27bd26	0.04095187
163	0x3b8767ef	0.004132263
164	0x3d440aa9	0.04786173
165	0x3d227558	0.03966269
166	0x3b9eae79	0.004842576
167	0x3d86e6ca	0.06586988
168	0x3caf45e7	0.021395637
169	0xbd365121	-0.044510964
170	0xbb3b05e0	-0.0028537437
171	0x3d60a0c7	0.05484083
172	0x3d1e3bda	0.038631298
173	0x3d253590	0.040334284
174	0xbc249b4f	-0.010046794
175	0x3d6864f2	0.056736894
176	0x3d45ae01	0.048261646
177	0x3cb8398e	0.022488382
178	0xbd0469af	-0.03232735
179	0x3d10ee43	0.035383474
180	0x3d21a357	0.039462414
181	0x3c97143e	0.01844227
182	0xbbb502d9	-0.005524021
183	0x3cf9f4c9	0.03051223
184	0x3d15342b	0.036426704
185	0x3c8ae1a9	0.016953306
186	0x3d6a1537	0.05714914
187	0xbb2a5bf6	-0.0025994754
188	0xbcfade49	-0.030623572
189	0xbcdbaafe	-0.026814934
190	0x3d43abd5	0.047771294
191	0x3d7362b1	0.05942029
192	0xbc0a6767	-0.008447505
193	0x3cfbfc44	0.030759938
194	0xbc3bd445	-0.011464183
195	0x3c1d8694	0.009614605
196	0x3c022e04	0.007945541
197	0x3d091949	0.03347138
198	0x3c319b0c	0.010840189
199	0x3cfafa46	0.030636918
200	0x3c753ddc	0.014968362
201	0x3c14e092	0.009086745
202	0x3d0198f0	0.031639993
203	0x3c9a4332	0.01883087
204	0x3c902bef	0.017599074
205	0xbcbc006a	-0.022949416
206	0x3caf0dab	0.021368822
207	0xbb5e7a31	-0.0033947343
208	0x3cec6e0b	0.028861066
209	0x3d3fed6e	0.04685729
210	0xbc5b37d1	-0.013380007
211	0x3cd9968c	0.026561044
212	0xbc3771db	-0.011196579
213	0x3d2b69e1	0.04184902
214	0x3d10c099	0.035339925
215	0xbccb8637	-0.024844272
216	0xbbb1d2f9	-0.005426761
217	0xbc8f6260	-0.017502964
218	0xbc095837	-0.008382848
219	0xbb7c2052	-0.0038471413
220	0xbc19f664	-0.009397123
221	0xbca83fd4	-0.020538248
222	0xbd2f4688	-0.042791873
223	0xbca098b2	-0.01960406
224	0xbbafe9fc	-0.0053684693
225	0xbca6eaea	-0.020375688
226	0x3c5841ed	0.013199312
227	0x3cad0a0b	0.021122953
228	0x3cee2074	0.02906821
229	0x3d41cafc	0.04731272
230	0xbd3a381f	-0.045463677
231	0x3ce47726	0.027888846
232	0xbd60fe28	-0.054929882
233	0x3aadd228	0.0013261484
234	0xbb90353e	-0.004400878
235	0xbba72cce	-0.0051017767
236	0xbd4acb9a	-0.049510576
237	0xbcfd6887	-0.030933632
238	0xbd1894c0	-0.037251234
239	0xbcf1785f	-0.029476343
240	0xbcbd3ad2	-0.023099337
241	0x3d4b1211	0.049577776
242	0xbc195ec5	-0.009360974
243	0x3baa6677	0.005200203
244	0xbd2f161c	-0.042745695
245	0x3d22b6f8	0.039725274
246	0xbc1e0b78	-0.009646289
247	0xbd51b46d	-0.051197458
248	0x3d30e4f8	0.04318711
249	0x3bbc4684	0.005745711
250	0x3d8a73db	0.06760379
251	0xbcf2897c	-0.029606573
252	0xbd704cb1	-0.05866689
253	0xbd46d40d	-0.04854207
254	0x3c82c186	0.01596142
255	0x3c0ad891	0.008474485

bias f4 [32]
0	0xba1be9be	-0.0005947611
1	0xbd2a52fb	-0.041583043
2	0xbd223d72	-0.03960938
3	0xbd28ac11	-0.04117972
4	0xbc6b74bc	-0.014371093
5	0x3d0a7ebe	0.033812277
6	0xbb23535d	-0.0024921515
7	0x3c213bfe	0.009840963
8	0xbac5a8f1	-0.0015080256
9	0x3d0a2137	0.033723082
10	0x3d4a0cb1	0.04932851
11	0xbcaa759c	-0.020808034
12	0xbd1844a6	-0.037174843
13	0x3cc9950d	0.024607206
14	0x3d1bc6b8	0.03803131
15	0x3b79aa63	0.0038095943
16	0xbcd1b603	-0.025599485
17	0xbc475928	-0.012167253
18	0x3d0b496e	0.034005575
19	0x3c837eb1	0.016051622
20	0xbc9e3880	-0.01931405
21	0x3c992a2e	0.01869687
22	0x3c2b01be	0.010437427
23	0xbc8e58ec	-0.017376386
24	0xbcdcd80e	-0.026958492
25	0x3c6d5c9a	0.01448741
26	0x3c68fc96	0.014220377
27	0x3d471ce6	0.048611544
28	0xbc193c7f	-0.009352802
29	0x3bbd8f7c	0.005784927
30	0x3c350a57	0.0110498285
31	0x3cb5824f	0.022156863

weight f4 [32]
0	0x3f845491	1.0338308
1	0x3f86dc28	1.0535936
2	0x3f85d8db	1.0456804
3	0x3f8751e3	1.0571865
4	0x3f865d76	1.0497272
5	0x3f874a56	1.056956
6	0x3f8790b1	1.0591031
7	0x3f881fbe	1.0634687
8	0x3f83fa69	1.0310794
9	0x3f871c48	1.0555506
10	0x3f846f36	1.0346439
11	0x3f867134	1.0503297
12	0x3f871d5c	1.0555835
13	0x3f86c9ac	1.0530295
14	0x3f843c7f	1.0330962
15	0x3f86fcb9	1.0545875
16	0x3f85ad8f	1.0443591
17	0x3f8687f4	1.051024
18	0x3f85bf17	1.0448941
19	0x3f8ad0cc	1.084497
20	0x3f86818e	1.0508287
21	0x3f860058	1.0468855
22	0x3f85fc7b	1.0467676
23	0x3f85bf87	1.0449075
24	0x3f88f25c	1.0698962
25	0x3f856573	1.0421585
26	0x3f868fb9	1.0512611
27	0x3f85c5ff	1.0451049
28	0x3f83c663	1.0294918
29	0x3f869a13	1.051577
30	0x3f8637cd	1.0485779
31	0x3f821571	1.0162793

bias f4 [32]
0	0x3c815ef6	0.015792351
1	0x3cf295d5	0.029612461
2	0x3c98bbf9	0.01864432
3	0x3cef3332	0.029199217
4	0x3c84d791	0.016216071
5	0x3c99c6ca	0.018771548
6	0x3d105ebd	0.0352466
7	0x3d16a9cb	0.03678302
8	0x3c5a3e9a	0.013320589
9	0x3d099dea	0.033597864
10	0x3c26fe43	0.010192457
11	0x3d0f21d9	0.03494439
12	0x3d160711	0.036627833
13	0x3cda9954	0.02668444
14	0x3cca4c14	0.02469448
15	0x3cdd529b	0.027016928
16	0x3cb4e765	0.022082994
17	0x3c921266	0.017831039
18	0x3d0ad43f	0.03389382
19	0x3d313130	0.0432598
20	0x3cc0e0f9	0.023544775
21	0x3ca5c3c6	0.020234954
22	0x3d0801c1	0.033204798
23	0x3ca98f69	0.020698266
24	0x3cc7a62c	0.02437123
25	0x3d08fdd7	0.033445206
26	0x3cf379ad	0.029721105
27	0x3cbfdc2e	0.02342042
28	0x3c938279	0.01800655
29	0x3cbdcc7d	0.023168797
30	0x3d1c75d1	0.038198296
31	0x3bb02ce1	0.0053764437

running_mean f4 [32]
0	0x3dbe2670	0.09284675
1	0x3d13796f	0.03600448
2	0xbdd28996	-0.10280149
3	0xbf022b6f	-0.50847524
4	0x3f121c72	0.57074654
5	0xbe6d7422	-0.23188832
6	0x3f0a3c1b	0.53997964
7	0xbe2e9e22	-0.1705251
8	0x3f5f5b0d	0.8724831
9	0x3dc92abe	0.098226056
10	0xbe319480	-0.17341805
11	0x3e80627b	0.25075135
12	0x3a8e6b17	0.0010865655
13	0x3f795b46	0.974049
14	0x3f6db359	0.9285179
15	0x3f2f5801	0.6849366
16	0x3d3423cf	0.043979462
17	0x3d3308f2	0.043709703
18	0xbe625fe1	-0.22106887
19	0x3f1a0727	0.60167164
20	0xbf23b244	-0.63943887
21	0xbf03e5b8	-0.515224
22	0x3ece5876	0.40301865
23	0x3f5d2e4b	0.8639876
24	0x3f9b1221	1.2114908
25	0x3dc00549	0.09376008
26	0x3e276018	0.1634525
27	0x3e2e73b1	0.1703632
28	0x3f12d065	0.57349235
29	0x3f5cc737	0.8624148
30	0x3e901476	0.2814061
31	0x3f52c8ae	0.8233746

running_var f4 [32]
0	0x3f958e9a	1.1684144
1	0x3f67d24a	0.9055525
2	0x3fb2aff6	1.3959949
3	0x3fa9fe3c	1.3280711
4	0x3fdb38d7	1.7126721
5	0x3fa3d674	1.2799821
6	0x3fae9dfa	1.3641961
7	0x3fe73d0f	1.8065509
8	0x3fcc4892	1.5959647
9	0x402ce7c9	2.701647
10	0x3f89ee04	1.0775762
11	0x3f7a2b7a	0.9772259
12	0x3f6de9bf	0.92934793
13	0x3f4f2703	0.809189
14	0x3f1547f2	0.58312905
15	0x3f8eefd9	1.1166946
16	0x3f990190	1.1953602
17	0x3fb11191	1.3833486
18	0x3fcc22f7	1.594817
19	0x3fcf831a	1.6211884
20	0x3f8a3188	1.0796366
21	0x3fa93a33	1.3220886
22	0x3fa3499a	1.2756836
23	0x3f82acf8	1.0209036
24	0x3f932867	1.1496705
25	0x3fae9bd1	1.3641301
26	0x3f8db60a	1.1071179
27	0x3fa14c0d	1.2601334
28	0x3f7e25f3	0.99276656
29	0x4012e48f	2.2952
30	0x3fc6d2ce	1.5533082
31	0x3fcdb1d1	1.606989

weight f4 [62, 1568]
0	0x3b4c5e46	0.003118412
1	0xbc569387	-0.013096697
2	0x3d05b74d	0.032645512
3	0x3cd93140	0.026512742
4	0x3d2c4075	0.04205366
5	0xbc1cec4e	-0.009577824
6	0x3cc121ae	0.02357563
7	0x3c75acee	0.014994843
8	0xbb61ae6e	-0.0034436244
9	0xbc888b6b	-0.016668042
10	0x3adb77b7	0.0016744052
11	0x3ca17985	0.019711265
12	0xbc14267f	-0.009042381
13	0x3c81272f	0.015765755
14	0x3c063fb0	0.008193895
15	0x3d027796	0.031852327
16	0x3cd91f59	0.026504206
17	0x3b077b59	0.0020672886
18	0xbc81fd8a	-0.015867967
19	0xbc8b11d0	-0.016976267
20	0x3cd21282	0.02564359
21	0xbaa9bbfc	-0.00129497
22	0x3b9564a1	0.004559115
23	0xbc6688cb	-0.0140707
24	0xbca824a1	-0.020525279
25	0x3cdb17e3	0.026744789
26	0x3c9d2c8a	0.019186277
27	0x3c62307e	0.013805507
28	0x3d044a3a	0.03229735
29	0x3c40fa66	0.01177845
30	0x3ca8ae58	0.020590946
31	0x3badae86	0.005300346
32	0x3cff0253	0.031129038
33	0x3ad3dbbb	0.0016163507
34	0x3cc76253	0.024338877
35	0x3d197b68	0.037471205
36	0x3b22ac03	0.0024821765
37	0xbc9c8d8c	-0.019110464
38	0x3d12c33b	0.035830718
39	0xbcbed8ee	-0.0232968
40	0x3c037aad	0.008024854
41	0x3c8fad60	0.017538726
42	0x3c41a464	0.011818979
43	0xbc2fcda8	-0.010730185
44	0xbc99bab5	-0.018765787
45	0xbb9f72e7	-0.0048659923
46	0x3b5da74a	0.0033821636
47	0x3baf4edf	0.0053499783
48	0x3cb7ff51	0.022460612
49	0x3b85f15d	0.0040876106
50	0x3b721d2f	0.0036943664
51	0x3ce42515	0.027849713
52	0x3cc117f6	0.023570996
53	0x3d010776	0.031501256
54	0x3c7ec00d	0.015548718
55	0x3cee4e42	0.02909005
56	0x3c7ff5dc	0.015622582
57	0xbaa6d4bc	-0.0012728195
58	0x3cef15ba	0.029185165
59	0x3cb5cf05	0.022193441
60	0xbb58b772	-0.0033068326
61	0x3d14d972	0.036340185
62	0x3c61a4bb	0.013772185
63	0xbca59c82	-0.02021623
64	0x3b819b9d	0.003955318
65	0xbc65eaa0	-0.01403299
66	0xbcd5de81	-0.026107075
67	0xbbe59b91	-0.0070070704
68	0xbb17f62d	-0.0023187504
69	0x3d29a9e6	0.041421793
70	0x3cc22989	0.023701446
71	0x3cc589d4	0.024113573
72	0x3cd3641a	0.025804568
73	0xbcab17e6	-0.02088542
74	0xb928bdcc	-0.00016092433
75	0x3c86fd96	0.016478341
76	0x3c8c3ef3	0.01711986
77	0x3c9040b1	0.017608972
78	0x3ca48cd2	0.02008668
79	0x3d3e09ca	0.046396054
80	0x3d3f81c0	0.0467546
81	0xbc524998	-0.012834929
82	0xbb86d9d7	-0.004115324
83	0xbce88d9c	-0.028387837
84	0x3b9c47f2	0.0047693187
85	0xbc176f72	-0.009242879
86	0x3d35bb3d	0.044368017
87	0x3d36df7f	0.044646736
88	0x3c6cbb11	0.014448897
89	0x3c56aa7d	0.013102171
90	0xba107249	-0.0005510194
91	0xbcff7a99	-0.031186389
92	0x3c6df055	0.014522632
93	0x3c9a1062	0.01880664
94	0x3d0044e1	0.031315688
95	0x3cc04bb2	0.023473594
96	0x3c6b9aa9	0.014380136
97	0xbc358b1a	-0.011080528
98	0xbd062ab8	-0.032755584
99	0x3bd9df59	0.0066489396
100	0x3c74b175	0.014934887
101	0x3c044bec	0.008074742
102	0x3c24e170	0.010063514
103	0x3d214fc4	0.03938271
104	0xbc760c31	-0.015017555
105	0x3bd72301	0.006565452
106	0x3bca2716	0.00616921
107	0xbca48a02	-0.020085339
108	0xbc91e118	-0.017807528
109	0x3c3c92a5	0.011509572
110	0xbbf2ebd3	-0.0074133663
111	0x3c54af21	0.012981207
112	0xbc89dbee	-0.016828503
113	0x3c3ad5a2	0.011403473
114	0xbcc16356	-0.023606937
115	0xbd124cfd	-0.035717953
116	0x3d17b696	0.037039362
117	0x3be7607c	0.0070610624
118	0xbc96bcdd	-0.018400604
119	0x3cdd4006	0.027008068
120	0x3caa6f52	0.020805035
121	0xbcf0a253	-0.029374277
122	0xbcec019c	-0.028809361
123	0xbb3a3980	-0.002841562
124	0xbcb9eb51	-0.022695215
125	0x3bad096d	0.0052806647
126	0x3ca10533	0.0196558
127	0x3c43970f	0.011937871
128	0x3c6bc45f	0.01439008
129	0x3d120a91	0.03565461
130	0xbce1b915	-0.027554074
131	0x3bad8b80	0.0052961707
132	0x3cba172c	0.022716127
133	0xbc8bc156	-0.017059963
134	0x3ccc5b90	0.024946004
135	0x3bd30b93	0.0064405887
136	0x3ce44ae9	0.027867751
137	0xbd010f44	-0.0315087
138	0xbbc529fa	-0.006016967
139	0xbb997a5d	-0.0046837763
140	0xbd2b7cf2	-0.041867204
141	0xbc19170f	-0.0093438765
142	0x3b2fec51	0.0026843736
143	0xbb9d5b49	-0.004802142
144	0x3cd10982	0.025517229
145	0x3c58fbfd	0.013243672
146	0xbc3af1b2	-0.011410164
147	0x3bc90123	0.0061341687
148	0xbc3cd22e	-0.01152472
149	0x3b95f0da	0.004575831
150	0x39159a8e	0.00014267323
151	0x3d30d332	0.04317016
152	0x3c09e18b	0.00841559
153	0x3c85c328	0.01632841
154	0xbbefcf87	-0.0073184404
155	0xbc42005b	-0.011840905
156	0xbbf24376	-0.007393296
157	0x3d18d6ee	0.037314348
158	0x3c81b67d	0.015834088
159	0x3d33cd09	0.04389671
160	0x3c07199c	0.008245852
161	0xbb29ee1c	-0.0025929278
162	0x3b87aedb	0.0041407174
163	0xbc57e6dc	-0.0131776
164	0x3cd03f49	0.025420802
165	0x3c8cca84	0.01718641
166	0x3c598e32	0.013278531
167	0x3caa8a6e	0.020817962
168	0x3c3bee57	0.011470399
169	0x3a1b88a3	0.0005933141
170	0x3c63fd47	0.0139153665
171	0x3c5f6295	0.013634344
172	0xbd295688	-0.04134229
173	0x3b53bc10	0.003230814
174	0x3b9e2ef2	0.0048273737
175	0xbd08070b	-0.03320984
176	0x3cbd78af	0.023128835
177	0xbc0caff0	-0.008586869
178	0xbbee4293	-0.00727112
179	0x3be8f4fb	0.007109282
180	0x3b5a08be	0.003326937
181	0x3c55867a	0.01303255
182	0xbcd0f714	-0.025508441
183	0x3ca0e3eb	0.01963993
184	0xbc9a0bc2	-0.018804435
185	0x3c1019c5	0.008795206
186	0x3d026197	0.03183135
187	0x3cfb7186	0.03069378
188	0x3cb257f7	0.02177046
189	0x3b7f0809	0.0038914701
190	0xbcc6ce49	-0.024268286
191	0xbb514880	-0.0031934083
192	0xb81bc151	-3.713492e-05
193	0xbb94519c	-0.00452633
194	0x3ca4fd50	0.02014032
195	0x3bb21418	0.0054345243
196	0xbad3a1e7	-0.0016146273
197	0xbaf0fe5f	-0.0018386355
198	0x3a5108e0	0.000797404
199	0xbc85bbc7	-0.01632489
200	0x3b79f9ef	0.0038143357
201	0x3ced843b	0.028993716
202	0xbc2c4b58	-0.01051601
203	0x3c1b10ad	0.009464425
204	0xbcb53b08	-0.022122875
205	0xbc98a783	-0.018634563
206	0xbb41255a	-0.0029471726
207	0x3bc343be	0.005959003
208	0xbc880f12	-0.016608749
209	0x3cbafbbf	0.02282512
210	0x3cd0c31e	0.025483664
211	0x3c076086	0.008262759
212	0xbb99ddb6	-0.0046956195
213	0x3c9638f4	0.018337704
214	0xbd0c0d24	-0.03419222
215	0xbc99bc12	-0.018766437
216	0x3c879a84	0.016553171
217	0x3bce0fac	0.0062884893
218	0x3c241419	0.010014557
219	0x3ce1a8c0	0.027546287
220	0xbd098e55	-0.033583004
221	0xbd35982c	-0.044334576
222	0x3cd21252	0.025643501
223	0x3ccd56c6	0.02506579
224	0x3c001383	0.007817152
225	0x37cef4fb	2.4671192e-05
226	0x3c8f913a	0.017525304
227	0xbcbdd0f1	-0.02317092
228	0x3d13b991	0.03606564
229	0x3c3a37d7	0.011365852
230	0xbc323196	-0.01087608
231	0xbb59044b	-0.003311413
232	0xbce4be9d	-0.027922923
233	0xbbde53a0	-0.006784871
234	0xbc01f436	-0.00793176
235	0x3c32c125	0.010910307
236	0x3cdd9796	0.02704982
237	0xbadaa689	-0.0016681711
238	0x3ccb2bd3	0.02480117
239	0xbc942e4a	-0.018088479
240	0xbc55cd6c	-0.013049465
241	0x3c872854	0.016498722
242	0x3c88a0e7	0.016678287
243	0xbc751846	-0.0149594005
244	0x3b5d408b	0.0033760394
245	0xbc9aa89f	-0.018879233
246	0xbc4cbd6a	-0.012496332
247	0xbc6e8ecb	-0.014560412
248	0x3c673771	0.014112339
249	0x3b781de6	0.0037859618
250	0x3cbb6b3c	0.022878282
251	0xbc50b425	-0.012738262
252	0xbbbace20	-0.0057008415
253	0xbcafd16a	-0.021462161
254	0xbc2bd8fc	-0.010488745
255	0x3ce4ef52	0.027946148

bias f4 [62]
0	0x3ae7bc29	0.0017679977
1	0x3d332042	0.043731935
2	0x3b790396	0.0037996522
3	0xbc7d35b6	-0.0154547
4	0x3ce35b33	0.027753448
5	0x3ccb13fc	0.024789803
6	0xbc32576e	-0.010885103
7	0xbbb18ca5	-0.0054183775
8	0x3c227292	0.009915011
9	0xbb21ed51	-0.0024708102
10	0xbccc2831	-0.024921509
11	0xbb90f052	-0.0044231797
12	0xbcfd2026	-0.030899119
13	0xbc2c08bb	-0.010500128
14	0xbceb8235	-0.028748611
15	0xbc64f941	-0.013975442
16	0x3bad1c4d	0.0052829147
17	0x3c8605f2	0.016360257
18	0xbd05fa93	-0.03270967
19	0xbb11bc82	-0.0022237604
20	0xbbd0611b	-0.006359232
21	0xbd036fe3	-0.032089125
22	0xbc2c626d	-0.010521513
23	0xbbf20d10	-0.007386811
24	0xbcd4c001	-0.02597046
25	0xbc33bdc0	-0.010970533
26	0xbc14d4b9	-0.00908392
27	0xbb4f9949	-0.0031677058
28	0xbc35349a	-0.0110599045
29	0xbbd3c295	-0.006462405
30	0xbbda14d4	-0.006655315
31	0xbc361a8b	-0.011114727
32	0xbc7fb9a6	-0.015608227
33	0xbcd1e998	-0.025624081
34	0x3c46a2d7	0.012123785
35	0x3ba69359	0.005083483
36	0xbc213bfb	-0.009840961
37	0xbcfa1953	-0.030529654
38	0x3a955455	0.0011392931
39	0xbc5f4d4a	-0.013629267
40	0xbc42958f	-0.011876478
41	0xbc603d75	-0.0136865275
42	0x3c615d38	0.013755135
43	0xbbae0ef6	-0.005311842
44	0xbc0c7d4f	-0.008574798
45	0x3b14a852	0.0022683335
46	0xbcf07c22	-0.029356066
47	0xbae4b749	-0.0017449643
48	0x3abdd0a1	0.0014481732
49	0xbca37d4f	-0.019957213
50	0xbcfffa6e	-0.031247344
51	0x3c310bdf	0.010806053
52	0x3c2317f9	0.009954446
53	0xbc494048	-0.012283392
54	0xbbd26cdc	-0.0064216685
55	0x3c085c10	0.008322731
56	0x3c1ccdc7	0.0095705455
57	0xbbe0172f	-0.006838701
58	0xbc48c234	-0.012253333
59	0xbc454fed	-0.012042982
60	0x3b1d7102	0.0024023657
61	0x3c659527	0.0140126115
